data/model_v10.tflite (tflite, 414712 bytes, 8 tensors)

conv2d_3/Conv2D_bias f4 [8]
00000000: e628 163e f1ea aabd fc84 f53d 6f38 b13d
00000010: 70f1 50bd 5d2f 3ebc 92d7 473e 9c9f 103e
0.14664039 -0.08345593 0.119882554 0.08653342 -0.051011503 -0.011607972 0.19515827 0.14123386

conv2d_3/kernel f4 [1, 3, 3, 8]
00000000: 7a2c 8d3e 77ab c63e 54b8 e2be e1ad 743e
00000010: db91 c93e 69a3 8bbe c426 383d 5233 e03e
00000020: d498 adbe 602c e53d 7bae 983e ca1e c03e
00000030: 8bb6 973e dbb6 843c cd3a 25bd c1a0 01be
00000040: 4755 c9be 5daa dc3d 1c7d 4c3e 1d7b f7bd
00000050: f235 3f3e 2e94 8ebe fd50 bc3e af54 3a3e
00000060: 3889 6dbe f84a 913e afb2 e1be 0564 983e
00000070: d186 663e 714d cc3e 244b 513e f37e 943c
00000080: 3d08 1cbe dcc7 183d 31bc cf3d b61e f2bd
00000090: 9098 c33e daf1 a53d 5b9f 9ebd 85e3 9d3c
000000a0: f30e 99be a151 a0bd e392 713e 7a0b 05bf
000000b0: 8f2c 893e 9e04 83bd 1b26 e0be 3790 b2be
000000c0: 168d a73e d9d7 a4bb 8015 9a3c b747 3ebd
000000d0: bab6 da3d 9676 e33e 087c d3bd 9458 68be
000000e0: b41c c53e 92ca efbd 0758 7b3d f6a8 92be
000000f0: 9dd5 933e ae70 923e 0edc 7cbe 2420 863b
00000100: 8c37 853e f8f5 b4bc 44ca 0cbe aa13 b93d
00000110: 842f 5ebb ecab 743e 70d4 a93d d027 95bd
0.27572995 0.38802692 -0.44281256 0.23894455 0.3936909 -0.2727311 0.044958845 0.43789154
-0.3390566 0.111901045 0.29820618 0.3752349 0.29631457 0.016200474 -0.04033928 -0.12658979
-0.39322874 0.10774682 0.199696 -0.12084029 0.18672922 -0.27847427 0.3678054 0.18196367
-0.23196876 0.2837751 -0.44081637 0.2976381 0.22512366 0.39902833 0.2043882 0.01812694
-0.15237518 0.037299976 0.101433165 -0.11822264 0.38202333 0.0810277 -0.077452384 0.019273529
-0.29894218 -0.078280695 0.23591189 -0.51970637 0.26791808 -0.06397365 -0.43779072 -0.34875652
0.32724828 -0.005030614 0.01880908 -0.04645511 0.106793836 0.4442641 -0.103263915 -0.2269004
0.3849846 -0.11708559 0.061363246 -0.28644532 0.28873911 0.28601593 -0.24693319 0.004093187
0.2601894 -0.022089943 -0.13749033 0.09036954 -0.0033902833 0.23893708 0.08292472 -0.07282984

conv2d_4/Conv2D_bias f4 [16]
00000000: 3217 cebd 907f 8dbc 51f1 9bbd ff92 b8bd
00000010: 93ab dcbc 9a5e 5cbd 0f03 2abe e083 67bd
00000020: 0332 3fbd 248a 1abe be47 fb3b 212a 84bd
00000030: 9ddb dbbd 33d3 73bd 91ed 3abc 2e88 ef3c
-0.10063018 -0.01727274 -0.07614387 -0.09012412 -0.026937282 -0.053801157 -0.1660273 -0.05652225
-0.046678554 -0.15091759 0.0076684644 -0.06453348 -0.10735247 -0.059527587 -0.011409179 0.02923974

conv2d_4/kernel f4 [16, 3, 3, 8]
00000000: 0f8a 863d 5ed8 db3d 38fd b2be 4d0e c8be
00000010: 5087 a03d 6519 783e 3ce2 dbbe dc95 94be
00000020: 6b22 993d 0d1e 7abd 4529 2abe f85f 93be
00000030: 85c3 713c 3683 083e 6d82 a9be d880 8fbe
00000040: b39f 06be f3d3 aa3d a39a e1bc 658a 75be
00000050: b148 9e3d 4f6c 073e fd86 a5be 004b 6bbe
00000060: 0647 bebe 7fc5 5dbd 26fa c1be a8d1 58be
00000070: 3330 b93c 50da 283e 9e10 c7be e6d4 e4bd
00000080: 70db 86be 2109 d73d c124 edbe ba33 91be
00000090: 397f 45bd 6aba 2ebe 30bc d3be 0989 d6be
000000a0: aaaa 90be c599 753d 6d7a bcbe 83eb 9fbe
000000b0: 49c1 a13c a651 86bd 4a13 d9be aca4 00be
000000c0: 5254 40bd 5409 793d 6f75 ab3c 468a afbb
000000d0: 14bf c9bd b925 36be dd31 433e 2094 873e
000000e0: 2e74 27be 9664 adbd 9a32 0fbe e87c fc3d
000000f0: 0f2f b93d 4533 bdbd 44b2 f43d ede6 513e
00000100: e377 87bd 8c0d f43d 830b 57be 518b 45be
00000110: 4240 dfbb 1b6f 1c3d 2813 71bb 1929 31be
00000120: ffcf 5ebd e10c 4cbe e75d 993e 8ad9 0c3e
00000130: ee54 e1bd 9112 913c 5b38 b83d 1cec f93c
00000140: d296 163c 34b9 b4bd 2086 633e 5591 30be
00000150: c6fb 34bd d023 9dbc 2f25 08be 454e f5bd
00000160: d714 f3bd c497 5f3d 887b a43e f077 9b3d
00000170: a070 753d 7ed8 4bbd 6d7f fbbd 2bbf e1bd
00000180: 7f83 24be 72c1 98be 63ea c03e 3ebf 813e
00000190: d7a1 0bbe ea28 22be 8ab5 0f3e 1a92 c03c
000001a0: 3df3 8bbd cfcb 44be a33b 9a3e db36 e7be
000001b0: b8a0 d23d 334c d73d d4b6 76be 6484 64be
000001c0: 1e83 27be 00b7 213e 4f46 093e d89a 9d3d
000001d0: 791d 903d 88c6 21bd 0e7a 863d 20df 92bd
000001e0: 626f f73d 2200 6fbd b994 d73e ae5f aa3d
000001f0: e0ea 0abe c580 3bbd 212a 6a3e 6e6d 50bd
00000200: 8550 b4be f522 493d f023 293e 4d5d 5cbd
00000210: 190a f73c fb49 f63c 8496 90bb 66c9 07be
00000220: eeb5 3ebe 2fb7 9a3d fb61 95bd e255 133e
00000230: 62dc 403e 8297 043e 70cc bdbd 11ba 04be
00000240: ee9a 3fbe cad0 ba3d 9d63 6c3c 61c7 a0bd
00000250: 8163 b83d 29ea 87bd f3ae 883d a29e 2cbe
00000260: dc6d f9be 89cc 143e 6536 abba d52c 603e
00000270: 8864 433e d9a0 1fbd 7462 ac3e 270f 803c
00000280: cc8f 6dbe 40cd d73d 12df c1be e360 bd3e
00000290: 1645 d7bc c93a 1b3e 5a0e 403e 89bf 653e
000002a0: 0060 c6bc 7696 673d 34f0 423e 32ba 8d3e
000002b0: 7124 32be 9dbc c6be c251 9c3e 762d 153e
000002c0: 4240 513d 7366 23be 1212 db3d 1117 a13e
000002d0: e840 8cbd 3c20 74be fbb5 ca3d 101a 7a3e
000002e0: 0370 5cbd 3841 443c ac4e 2c3c 67d0 553e
000002f0: 407d e9bd 6bc9 bebe 7dea 5c3e c48c 483e
00000300: 0a07 7d3e 0784 07be a8e2 4ebe 5caa e4bd
00000310: 7d9b 30be 79a9 513d a403 213d 67cb 6f3d
00000320: 90dd ae3c 44ac 83bd 4f41 ecbd 12d3 33be
00000330: 4c83 2e3d 4c56 84bd 3623 8a3c b709 d7bc
00000340: 24f1 a13d d008 37be 364b 19be c796 8fbc
00000350: 2b7d 88bd cf3f dfbc 07d4 03be 6b78 c1bd
00000360: ed68 e1bc 4c9c dcbd f25f 1abe cd72 c1be
00000370: 2b9a d53d 0654 c43d db77 efbe ac8d d4be
00000380: 2baa 5f3c 68f0 65bd 52a2 8dbd 072c e8be
00000390: 5e28 cfbc b889 fbbd 9323 06bf 2c03 a7be
000003a0: 80ec 2a3e cfdf ce3d 7a07 50be 8a7a 80be
000003b0: 951e ff3d 3ce6 333e 804c 2cbe 3ac0 a63a
000003c0: b586 89be e398 903d bd8f 73be 6e43 0d3d
000003d0: 2fb6 57bd 049a c9bd 15b3 49be 886b 24be
000003e0: 4f7e dbbe 89ca e83d ee0f 8cbe 812f 9c3d
000003f0: 0041 063e 05b1 3e3b b586 a73c 6a4b f63d
0.06569301 0.10734628 -0.34958816 -0.3907341 0.07838309 0.24228437 -0.4294604 -0.29020584
0.07477268 -0.061063815 -0.16617306 -0.28784156 0.014756088 0.13331303 -0.3310732 -0.28027987
-0.13146858 0.08341207 -0.027539557 -0.23978575 0.077287085 0.1322491 -0.3232955 -0.22977829
-0.37163562 -0.054143425 -0.3788616 -0.21173728 0.022605991 0.1648953 -0.38879865 -0.1117342
-0.26339293 0.10499788 -0.46317104 -0.28359777 -0.048217032 -0.17063299 -0.41354513 -0.41901425
-0.28255206 0.0599611 -0.36812153 -0.3123437 0.019745486 -0.06558542 -0.4239753 -0.12562817
-0.046955414 0.06079991 0.02093002 -0.0053570597 -0.098508984 -0.17787828 0.1906199 0.26480198
-0.16352913 -0.08466451 -0.13984147 0.123285115 0.09042179 -0.092382945 0.11948064 0.20498247
-0.066146635 0.11916646 -0.21000485 -0.19291426 -0.00681308 0.038191896 -0.00367851 -0.17300834
-0.05439758 -0.19926788 0.29954454 0.1375486 -0.11002527 0.017709048 0.08995124 0.030508094
0.009191232 -0.08824387 0.22219133 -0.1724294 -0.044185422 -0.019182116 -0.13295434 -0.11977819
-0.11869209 0.054588094 0.32125497 0.07591236 0.05992186 -0.04976701 -0.12280164 -0.110227905
-0.16065787 -0.29835087 0.37678823 0.2534122 -0.13635956 -0.1583592 0.14034095 0.023507167
-0.068335034 -0.19218372 0.30123624 -0.4515904 0.10284561 0.10512581 -0.24093181 -0.22316128
-0.16358611 0.15792465 0.13405727 0.0769555 0.070368715 -0.039495975 0.06566249 -0.07171464
0.120817915 -0.058349736 0.42105654 0.08319031 -0.1356616 -0.0457771 0.22867633 -0.05088561
-0.35217682 0.049105603 0.16517615 -0.053799916 0.030156182 0.030064574 -0.004412474 -0.13260421
-0.18624088 0.07554471 -0.07294079 0.1438823 0.1883407 0.1294842 -0.09267509 -0.12961604
-0.18711445 0.091218546 0.0144280465 -0.078505285 0.09003354 -0.066364594 0.06673994 -0.16857389
-0.4871663 0.14531149 -0.0013062475 0.21892102 0.19081318 -0.038971756 0.33668864 0.015632225
-0.23199385 0.10537195 -0.37865502 0.3698798 -0.02627806 0.15159144 0.18755475 0.22436346
-0.024215698 0.056539975 0.19036943 0.27681118 -0.17396714 -0.38815776 0.30531126 0.14568123
0.05108667 -0.1595705 0.10696806 0.3146291 -0.068483174 -0.23840421 0.09897991 0.24424005
-0.05381776 0.01197844 0.010516804 0.2088028 -0.11400843 -0.37263045 0.21573825 0.19584948
0.24709716 -0.13233958 -0.2020365 -0.11165306 -0.17246814 0.051187012 0.039310113 0.05854359
0.021345884 -0.064293414 -0.11535894 -0.17560986 0.042605683 -0.06461772 0.016862493 -0.02624975
0.07907322 -0.17874455 -0.14970097 -0.01752795 -0.06664499 -0.027252106 -0.12873851 -0.09446796
-0.027515853 -0.10771999 -0.15075663 -0.377829 0.10429796 0.09586339 -0.4677113 -0.41514337
0.013651411 -0.056137472 -0.06915726 -0.4534609 -0.025287803 -0.12282127 -0.5239803 -0.32619607
0.1669178 0.10101282 -0.20315352 -0.2509349 0.12457005 0.17568296 -0.16826057 0.0012722083
-0.26860586 0.07060411 -0.237853 0.034488134 -0.05266398 -0.09843829 -0.1969722 -0.16056645
-0.42869803 0.113667555 -0.27355903 0.07626248 0.13110733 0.002909721 0.020449976 0.12026103

dense_3/MatMul_bias f4 [128]
00000000: 65ac 7ebb 72b9 c13a 44da 00bc e279 3dbc
00000010: 7369 a9bb 587a 01bc 2733 113c 4e09 39bc
00000020: 44d6 42bd 39dc 873c 1ba8 993c 7f47 ad3c
00000030: f45e 4c3b 5910 20bc c44a 593c e1f2 c3bc
00000040: 73de bb3b 93d3 56bc 3e1d 15bd 3deb 243c
00000050: fc09 15bd 4de7 c8bc 871a 0dbc 8d1c 24bb
00000060: 27dc 3bbc c9c2 4cbc afb4 f8bb 9eb0 b8ba
00000070: 7218 0f3b 81cf bebb e5bf 5a3b f2c6 f2bb
00000080: 1804 13bc 0eab f4bb 06bf 153c 1604 62bc
00000090: bd2d 22bc 6dab d1bb 06b6 e53b 4a35 6dbc
000000a0: 8a62 aabb 371e fa3b e76e 6dbd 9705 0a3b
000000b0: 0484 26bc 32b3 b93c 760d c9ba 0553 86bc
000000c0: e922 6d39 e614 ba3c 8d25 15bb 27c4 65bc
000000d0: 4602 c4bb 15d4 6bbd e79a c73c c591 febb
000000e0: 9e91 2dbc 3523 703c d133 0c3c 4a26 5bbb
000000f0: 65bd aebb be1f d23a 3070 72bc 03d5 74bc
00000100: b16e 8aba 84c6 b3bc 43a1 a3bc db12 8b3c
00000110: 6e4b c4bb 7957 11bc a06f 83bc fe75 2f3c
00000120: 9af9 1c3c 638f dcbb 891d a7bc d141 7b3c
00000130: ebea 07bc 3b19 a13b c5c0 c53c c88a 66bc
00000140: 37f7 c13c 0b97 ddbb bb2c d63c a3a6 6cbc
00000150: e448 cf3b 2b44 c5bb c2a3 52bc f895 ae3b
00000160: ae06 56bc 6e04 c5bb 6e28 923b 4307 cabb
00000170: 8c7a 10bd 97ae f43b 6b60 b8bc c4b3 5cbb
00000180: 5ee8 b83c 5332 423c bac4 503c e62d 983a
00000190: 31d3 8ebc 08e6 21bc ba14 303c 9686 1bbc
000001a0: dad7 a1bc 8d00 1abc 5ee7 61bc 3958 9c3b
000001b0: ad45 10bd 55a9 03bc 7550 72ba 6e77 023d
000001c0: ca95 47bc 7a4c 0cbc e7fe 543c eb14 77bc
000001d0: edf4 5abc b137 c93c b3b9 bbba c5c9 78bc
000001e0: 89c3 14bc a2fe 95bc 100d 0cbc 2b96 8b3c
000001f0: 918d 673c b7aa 1fbc 89b4 88bc 75b8 f93c
-0.003886008 0.0014779998 -0.007864539 -0.011564704 -0.005170041 -0.007902704 0.008862293 -0.011293722
-0.04756762 0.016584503 0.018756917 0.021152256 0.0031184526 -0.009769523 0.013262454 -0.023919525
0.005733305 -0.013111967 -0.03640484 0.010065851 -0.036386475 -0.024524355 -0.008612282 -0.0025041432
-0.011466063 -0.012497612 -0.0075898985 -0.0014090722 0.002183464 -0.0058230762 0.0033378538 -0.00740897
-0.008973144 -0.0074666804 0.009139782 -0.0137949195 -0.0098986 -0.0063986094 0.0070102243 -0.014478037
-0.005199735 0.0076329964 -0.057967093 0.002106046 -0.010163311 0.022668455 -0.0015339095 -0.016397009
0.00022615086 0.022715043 -0.0022757978 -0.014023817 -0.0059817163 -0.057575304 0.024365855 -0.007768842
-0.0105938 0.0146568315 0.008557276 -0.003343957 -0.005332636 0.0016031188 -0.014797255 -0.014943364
-0.0010561553 -0.021945246 -0.019974357 0.016976764 -0.005990437 -0.008870953 -0.016044438 0.010709284
0.009580994 -0.00673096 -0.020399826 0.015335516 -0.008295755 0.004916338 0.024139771 -0.014071174
0.023677452 -0.0067623905 0.026144376 -0.014444026 0.006325828 -0.006020089 -0.012856426 0.0053279363
-0.013063116 -0.006012491 0.004460386 -0.0061654164 -0.03527312 0.007467102 -0.022506913 -0.0033676485
0.022571739 0.011852819 0.012742216 0.0011610358 -0.017434688 -0.009881504 0.010747129 -0.009492537
-0.019756246 -0.009399545 -0.013788072 0.004771259 -0.035222698 -0.008035977 -0.00092435564 0.03185218
-0.012181709 -0.008563155 0.013000227 -0.015080671 -0.013364059 0.024562689 -0.001432231 -0.015184824
-0.009079822 -0.018309895 -0.008548036 0.01703938 0.014132873 -0.009745291 -0.016687648 0.030483464

dense_3/kernel/transpose f4 [128, 784]
00000000: 3e5d 0e3d ebc6 d5bc 9334 513c 1787 c93c
00000010: 8b9d 393d 0d60 0e3c 9629 a0bd 06f0 da3c
00000020: 82ff 07bd 6009 59bd 9fac 7bbc 1bfa 753b
00000030: 2d9e be39 2c2e a8bd ea6d 01bd c93b 8a3d
00000040: 3927 aebb 9cce 3abd 7dbe 90bd 1fd5 90bd
00000050: 89bd 033d d5ef 273d da67 92bc cb3d 71bd
00000060: 88d4 503c e3ef 95bd ac9c 30bd 8eff b0bd
00000070: 72f3 f5bc 0443 cebc a725 793c 6586 afbd
00000080: a05e 96bd 2a92 e83c 33e6 ad3c 2ee0 a13c
00000090: 1073 503d 833f 0fbd 277e 113d 6410 29bd
000000a0: e2e8 9bbd a5e7 053d 161c a53b 9c27 8d3d
000000b0: 12e7 d7bc a7a5 3e3c 9a00 b1bc 4d75 65bd
000000c0: 4602 563d 4de0 c5bc 42fa 4bbc 89d0 a0bd
000000d0: d80e 92bd 3fc4 4a3b 10ed 89bd 5880 45bd
000000e0: 0d64 12bb c736 953d c4ae 283d f70a 3dbd
000000f0: e1d1 9fbd bb55 99bc 3637 0dbd 6650 48bd
00000100: 6db3 303d 2a52 993b f4f5 a2bd 5ee0 d83c
00000110: 5118 623d f0af eabc d71f 16bd b24a 4ebc
00000120: 7b18 4f3d a327 88bd 3fbc 17bd 4273 f7bc
00000130: 716b 2ebd 04a8 a0bd 650a ed3c 7e0d f43c
00000140: e703 89bd 4cd2 953d e520 493d 3e3c 5a3b
00000150: 41d0 3cbd cabd 9bba 9ba9 e43c bf78 3f3b
00000160: 4094 94bd 288f d9bc dedb e03c 4c9f 433c
00000170: f00a dd3c fe31 26bc 0c3f 813d 36f1 033b
00000180: b2bf 8bbd 71cc d5bc 7bd8 1dbc 2a4b a3bd
00000190: beca 6abb 6fa2 4b3d 17a6 ef3c 7c5d 643d
000001a0: fc1a 863d b96a 5f3d f520 203c f666 2d3d
000001b0: 147b ce3c 57a9 80bd c319 8f3c 39ad 6ebd
000001c0: a243 2a3d fdce aebc 4c11 953c 0647 02bb
000001d0: e080 da3c 97f8 753c 554c 33bd 1a04 a1bd
000001e0: 9f48 0b3d 881d 5f3d 5e5a f8bc 0d39 033d
000001f0: 347b 21bd e3a8 16bd da9e 0bbd 03f3 14bc
00000200: 2624 45bb 12d2 b93d bb3a 13bd bd77 0e3d
00000210: b5a6 06bc d997 a13a 2315 523d ca19 82bd
00000220: 392f 0ebd 25f5 07bd 035b aa3b aff3 9ebd
00000230: 72c3 873d 6c0a 123d 5618 55bd 616c 323d
00000240: c5ce 943d 3445 9ebd 10fd 67bc 3f34 43bd
00000250: 8ddd d23b a8d1 04bb 4e2b 6e3d c154 0bbd
00000260: 61ea 5a3d e0f6 9bbd 81f2 173c 5038 adbc
00000270: 1bbe cfbc 3bc3 2e3d a78e 80bd 3ba3 00bd
00000280: 0602 503d 612a d0bc db61 073d 9f29 86bc
00000290: 14cf 46bc 1143 12bd bc9c 28bd 1eb0 de3c
000002a0: 89af 33bc 5968 8e3a 40bc d93c 183a f53c
000002b0: 6b59 2abd 502b fd3c 839f 0cbd dc55 a9bd
000002c0: 25df 9c3d fb4d 8abd 03cd 3ebd 3851 96bd
000002d0: 0535 2fbc 0c59 83bb 9a23 90bd d489 dfbc
000002e0: 0578 963d cf12 a6bc 88ae 923d e5ef 983c
000002f0: b095 4ebd 633c 27bd 592f 80bd d042 263d
00000300: a259 49bd 20e1 8b3c f120 f63c e2a5 923d
00000310: 1919 85bd 1af0 1cbd 3aa3 a7bc acbe a5bc
00000320: eb6b 5abd 48dc a4bd ced8 bbbb 4bcc a1bd
00000330: 2656 d3bc 3c61 d3bc f781 87bd 7480 863d
00000340: 70c6 aabd 0301 77bd c460 aabd a45e 573d
00000350: b6a3 153c 7109 1fbd d9ff 813d b026 83bc
00000360: 3318 d83c a523 91bd e7e8 ea3b 1e0a cdbc
00000370: 0f82 c73c ebb0 0b3d e3b5 2a3c 1f67 6b3c
00000380: 6e33 a3bd 9a00 85bd 9900 f1bc 09c5 9fbd
00000390: 421c 9bbc 3fd2 233d 6a95 843d 52ec 96bd
000003a0: bed1 fe3c 2d48 af3c dbf3 733d 53e1 cfbc
000003b0: 7e40 5b3d 3e24 9b3d e9a9 38bd 3ff3 a13d
000003c0: 2ed1 a2bd f9d8 743d 09d6 08bc f7ba 38bd
000003d0: 3ea5 8f3d 48b2 f1bc c22d 433d 9415 8dbd
000003e0: be4a 66bd 2bb8 84bd dbc5 eebc cb9a 853d
000003f0: 881d 27bb 35d6 063d 6a17 653d e273 933d
0.03475689 -0.026095828 0.012768882 0.024600549 0.04531626 0.0086898925 -0.07820432 0.02672578
-0.033202656 -0.052987456 -0.01536098 0.0037533108 0.00036357474 -0.082119316 -0.031598963 0.06749684
-0.0053147343 -0.045607194 -0.07067583 -0.070718996 0.032163177 0.041000206 -0.017871786 -0.05889682
0.012745984 -0.073211454 -0.043118164 -0.08642493 -0.03002331 -0.02517844 0.015206731 -0.085705556
-0.07342267 0.028390009 0.021227932 0.019760218 0.050890982 -0.03497268 0.0355207 -0.041275397
-0.07612778 0.032691617 0.0050387485 0.068923205 -0.0263553 0.011636174 -0.021606732 -0.05602007
0.052248262 -0.024154807 -0.012449803 -0.07852275 -0.071317375 0.0030939726 -0.06734669 -0.0482181
-0.0022337467 0.072858386 0.041182294 -0.046153035 -0.07803703 -0.018717637 -0.03447648 -0.0489048
0.043139864 0.004678984 -0.07957068 0.026474174 0.05519897 -0.028648347 -0.03665146 -0.012591051
0.050560456 -0.06648185 -0.03704476 -0.030206326 -0.042582933 -0.078445464 0.02893562 0.02979159
-0.066901974 0.073155016 0.049103636 0.0033300067 -0.046097044 -0.0011882123 0.027912905 0.0029216257
-0.07254839 -0.02655752 0.02744859 0.011939835 0.026982754 -0.010143755 0.06310853 0.0020132787
-0.06823672 -0.026098462 -0.0096341325 -0.07973321 -0.003582641 0.049715456 0.029254002 0.055753216
0.065481156 0.054545138 0.009773483 0.04233452 0.025205173 -0.06282299 0.017468339 -0.058270667
0.041568406 -0.021338934 0.018196724 -0.001987876 0.02667278 0.015012882 -0.043773968 -0.078621104
0.034004804 0.054471523 -0.030316528 0.03203683 -0.039424136 -0.036782157 -0.03408704 -0.009091142
-0.003008136 0.09073271 -0.03594468 0.03478216 -0.008218457 0.0012328579 0.05128969 -0.06352575
-0.034713004 -0.033192772 0.0051988377 -0.07761323 0.06629075 0.03565447 -0.05202516 0.04356039
0.07266001 -0.07728043 -0.014159456 -0.047657248 0.0064351023 -0.0020266566 0.058146767 -0.034016374
0.053446177 -0.07615447 0.009274126 -0.021145016 -0.025359204 0.042666655 -0.06277209 -0.03140567
0.05078318 -0.025410833 0.033052307 -0.016377268 -0.012134332 -0.03570849 -0.0411651 0.027183589
-0.010967144 0.0010864838 0.026579022 0.029934928 -0.041589182 0.030904442 -0.03433181 -0.082683295
0.07659749 -0.06753155 -0.046582233 -0.0733971 -0.010693793 -0.004008418 -0.070380405 -0.027287401
0.07347111 -0.02027264 0.071621954 0.018669078 -0.050435722 -0.040829074 -0.06259031 0.04059106
-0.049157746 0.017075121 0.030045005 0.07160546 -0.064989276 -0.038314916 -0.020463575 -0.020232521
-0.053325575 -0.08049828 -0.0057326322 -0.07900294 -0.025797915 -0.0258032 -0.06616586 0.06567469
-0.0833863 -0.0603037 -0.08319238 0.05258049 0.00913327 -0.038827363 0.06347627 -0.016009659
0.026378727 -0.07086877 0.0071688774 -0.025029238 0.024354009 0.03410427 0.010419342 0.014367848
-0.07968794 -0.06494255 -0.02941923 -0.07801253 -0.018934373 0.03999543 0.06473811 -0.07369293
0.031105872 0.02139672 0.05955873 -0.025375998 0.0535283 0.07575272 -0.045083914 0.07907724
-0.07950054 0.059777234 -0.008351811 -0.04510018 0.07013939 -0.029503956 0.04765106 -0.06888881
-0.056223623 -0.0648044 -0.02914708 0.06523665 -0.002549978 0.032919127 0.055930533 0.07199837

dense_4/MatMul_bias f4 [11]
00000000: 7e6b 993c 080e 523c ef1d 52bc 66e6 413c
00000010: 4320 093d c458 37bd 2873 7fbd 3c54 2ebb
00000020: 8817 073d ecdf fb3c 6c32 eebc
0.018728014 0.012820728 -0.01282452 0.011834716 0.033478033 -0.044762388 -0.06236568 -0.00266005
0.032981426 0.030746423 -0.029076777

dense_4/kernel/transpose f4 [11, 128]
00000000: b9bb 323e 79f0 a9be 4cb9 4bbe 4992 9f3d
00000010: 7189 95bd 03e8 353e f28d 163e b15d ad3c
00000020: 5577 2d3e 7118 fb3c d57b 48be 538e c0be
00000030: fcf5 9ebe d9b3 dbbd d12f debd acfe a73d
00000040: cc59 a03d 9062 973d 5a43 02be 88da 013e
00000050: 6098 3c3d eccd 00be 3739 6dbe 48a2 293e
00000060: a26a 85be 226b 8abd 7dc1 d23d f781 a9bd
00000070: 69fd 85be 37b7 c6be 9580 8ebe a722 11be
00000080: 8c42 1bbd 5b21 503c 62b1 0a3e 8574 ecbd
00000090: f3b0 c73d 4a38 edbe 7a49 6cbe fca5 9b3c
000000a0: 9290 883d b8e7 5b3e aa8d 1e3e 90b8 a1bd
000000b0: 7314 cb3d 29d5 39be c68a 7dbe ac4a 0d3e
000000c0: fbee 5d3e d528 4c3e d79a 34be b5f0 18be
000000d0: 7d15 923c 72ec 033e b561 513e 3f10 f03d
000000e0: 01a2 62be b6de 0abe 65eb 483e 250b 87be
000000f0: 34d1 f23c db6f a33d 98c6 013e 2607 a93c
00000100: c017 ac3d f9dc a5bd f475 16be 3e42 df3d
00000110: 6f3f 02bd 794d 7fbb eb1e 2f3e 07fc b53d
00000120: e834 67bd 4bb4 3bbe c422 81bb aa26 543e
00000130: 5867 0bbe 1c52 613e 0397 15be 4a0c 27bd
00000140: 0f56 e33d 6e61 26be b548 c8be 584b f23c
00000150: 2784 d63d 010b 9a3d 4e3b e5bd 53a6 f33d
00000160: 1cd5 a13d e749 333e 8256 e0bd a86e bf3d
00000170: 9dcc 04be d2c0 2e3e 43df e4bd 6ce2 bebe
00000180: 6c7d a7bc c2e1 1a3e 4e66 083e 9de5 e0be
00000190: 669f 9f3d 3b5f 013c 7638 2d3e 84d8 423d
000001a0: c8d8 dc3d d0bb 003e 7a50 3ebe 10ad 2a3e
000001b0: 69a3 9fbc 8747 3ebe b296 503e 4100 523e
000001c0: 2f65 943d a534 053e 6327 6c3e 618c c7bd
000001d0: f48b e9bc 4443 f0be 8c7b 0abe 3b47 d43d
000001e0: abf0 55be e988 06be fe17 b13d e359 fb3d
000001f0: ae3f 96be 9c57 3c3e 07ec 1d3b 740a 483e
00000200: 5653 63bd 4d20 ca3d ce56 b13d 2d5d a7bd
00000210: 743f a13d 023a 3abe ce24 7cbe c778 103e
00000220: 4519 1cbe 7c42 fcbb 3dcc a43e 1395 943e
00000230: 7492 78be 7552 963e 0c1c cf3d 2c9f b8bc
00000240: 3644 843c 49af cfbe f670 67be 0aed 1dbe
00000250: 8485 14bd 8c1f b4bd 05cf 5cbe ff00 303e
00000260: c39b 11be 79c6 1f3e 6a9b cc3d 91fb 80bd
00000270: fa75 a1be 6499 8bbe ce50 a13d f524 d63d
00000280: 5ce3 703e 7392 813c 1bdf c9be 2217 0b3e
00000290: baec 483e 2c67 4dbe 1f60 e3be c55c 8a3d
000002a0: 38a8 1d3e fdb7 9bbe 5e36 16be 4ca1 2e3e
000002b0: c645 283d 1164 8e3e 7f62 86be b345 b83d
000002c0: 9816 593e df88 85be 07c5 823d 82f5 aabc
000002d0: 4fda 163e e1a8 8abe 76d8 ddbe d61b 1abd
000002e0: 6293 31be f7ee 693e 4b86 a03e 0520 a03e
000002f0: 73f5 d63b 92ea 093e f8bd 30be 3b82 353e
00000300: b185 f8bd bc21 e4bd 798f 453e a634 d6bd
00000310: 4cb3 89bd 82b1 e2bc 8216 053e 6bdc 863e
00000320: 7903 88bd 00a3 2cbd 3f78 d2bc 3acc d5be
00000330: bae6 e13d 5ce1 f63d b16c b63d bc70 323e
00000340: 125e 893d bb32 0f3e 4a7c 873d 97c9 f73d
00000350: 5b63 78be 0df6 303e fb3a cebd b0e6 a03d
00000360: 4cbe 163e 8599 703d abb9 af3c 7f5b 57be
00000370: 9cb9 8a3d c67e 5f3e c6da 32be 6016 7abe
00000380: e3d8 56bc 1701 613d 91c8 04bf 9f75 403e
00000390: a0e6 febd 2413 f4bd 5e14 d3bd 61de a3be
000003a0: 14bf c0bb 5c42 2e3e 15dc 453e 5680 debe
000003b0: 5670 f23d 142d ccbd d579 a63d 35e0 50be
000003c0: 0c2b 5fbe 4e99 3b3e 262f 9cbe 6c97 aabe
000003d0: 3807 1abd 2e31 7b3e 7aeb 0c3e 0e53 6abd
000003e0: dbff 8abc a1a9 0bbe ee4a 7abe 82b9 89bd
000003f0: f0f8 623e 501a 4d3c 680e 103d 381a 3f3e
0.17454423 -0.3319128 -0.19894904 0.077915736 -0.073016055 0.17764287 0.14702585 0.02116284
0.16940053 0.030651303 -0.19578488 -0.37608585 -0.31047046 -0.107276626 -0.10848964 0.08202872
0.078296274 0.07391846 -0.12721005 0.1268102 0.046043754 -0.12578553 -0.23166357 0.16565812
-0.26057917 -0.06758715 0.10290811 -0.08276742 -0.261699 -0.38811657 -0.27832475 -0.14173375
-0.03790526 0.012703265 0.13544229 -0.11545662 0.09750547 -0.46332008 -0.23074904 0.019000046
0.066681996 0.21475112 0.15483728 -0.07896531 0.0991601 -0.1814772 -0.24759969 0.13798016
0.21673195 0.19937451 -0.17637192 -0.14935572 0.017832512 0.12883165 0.20447429 0.11721849
-0.22132112 -0.1356152 0.19621046 -0.2637569 0.029640771 0.07980319 0.12673414 0.020633291
0.084029675 -0.08098788 -0.14693433 0.109013066 -0.031798776 -0.003895609 0.17101638 0.08885961
-0.05644694 -0.18330495 -0.003940912 0.20717874 -0.13613641 0.22003978 -0.14608388 -0.040783204
0.11100399 -0.16248104 -0.3911797 0.029576942 0.10474425 0.0752163 -0.11192952 0.11896958
0.079019755 0.1750866 -0.10954 0.09347278 -0.12968679 0.17065743 -0.11175396 -0.3728212
-0.020445548 0.15125182 0.13320276 -0.4392518 0.07794075 0.00789624 0.1691607 0.047569767
0.10783535 0.12571645 -0.18585387 0.1666758 -0.0194871 -0.18581973 0.20369986 0.2050791
0.07245862 0.13008364 0.230619 -0.09743572 -0.028509118 -0.4692632 -0.13523692 0.10365149
-0.20892589 -0.13138165 0.08647154 0.12273004 -0.2934546 0.18392795 0.0024096982 0.19535238
-0.055499397 0.09869442 0.08659135 -0.08172069 0.07873431 -0.1818619 -0.24623415 0.14108573
-0.15244015 -0.0076983552 0.3218707 0.29019985 -0.24274617 0.29359785 0.101127714 -0.022536837
0.016145807 -0.4056342 -0.22601685 -0.15422454 -0.036260143 -0.087950796 -0.21563347 0.1718788
-0.14219575 0.15603055 0.099905804 -0.062979825 -0.3153532 -0.27265465 0.078767404 0.10456268
0.2352423 0.015816903 -0.39428028 0.13583043 0.19621554 -0.20058888 -0.44409272 0.06755976
0.15396202 -0.3041381 -0.14669177 0.17053717 0.041082166 0.2781072 -0.26247022 0.08997669
0.21200025 -0.26080987 0.06385236 -0.02086902 0.14731716 -0.2708197 -0.4332921 -0.037624203
-0.17341378 0.22845064 0.31352457 0.3127443 0.0065600215 0.13468388 -0.17259967 0.1772546
-0.121348746 -0.11139247 0.19293012 -0.10459261 -0.06723651 -0.027672533 0.12996867 0.2634004
-0.06641287 -0.042147636 -0.025692103 -0.41757375 0.11030336 0.12054703 0.0890745 0.17425817
0.067073956 0.13984196 0.06615503 0.12098997 -0.24256651 0.17281361 -0.100698434 0.078565
0.1472103 0.058740158 0.021450838 -0.21030997 0.067736834 0.21825704 -0.17466268 -0.24422598
-0.013113233 0.05493268 -0.5186854 0.18794869 -0.12446332 -0.11917713 -0.10306619 -0.320056
-0.0058821533 0.17017502 0.19322236 -0.43457288 0.11837833 -0.099695355 0.08128706 -0.20398028
-0.21793765 0.183202 -0.3050472 -0.3331865 -0.03760454 0.2453048 0.13761702 -0.057208113
-0.016967705 -0.13638927 -0.24442646 -0.06724836 0.22165275 0.01251848 0.03516999 0.18662345
