data/only_dig.tflite (tflite, 810968 bytes, 6 tensors)

conv2d_12/Conv2D_bias f4 [8]
-0.2529196 0.19040859 -0.034077797 -0.05170486 -0.020015374 0.014022288 0.003623228 -0.2464781
00000000: ae7e 81be 78fa 423e 2995 0bbd 7ac8 53bd
00000010: 48f7 a3bc bdbd 653c ae73 6d3b c164 7cbe

conv2d_12/kernel f4 [1, 3, 3, 8]
0.081452094 0.54026383 0.4770201 -0.4428852 0.112101175 -0.28273243 0.328203 0.22448872
0.043497298 -0.0058813547 0.56880903 -0.49711645 -0.14385328 0.34064206 -0.2094612 0.16347939
0.16094707 -0.22605799 0.43774617 -0.38461787 -0.010402698 0.26380527 -0.12735054 -0.099634685
0.16076428 0.20502327 -0.03851988 0.31048322 -0.4494297 -0.45007148 0.3766202 -0.20930493
0.14848903 -0.33933944 -0.27764264 0.2763246 -0.43896902 0.11284123 -0.37792704 0.23397958
-0.04239649 -0.38583544 -0.23302948 0.07263589 -0.38084275 0.13806418 -0.0251466 0.26194292
-0.0077329753 0.074241765 -0.47736594 0.1430805 0.35057235 -0.21123485 -0.07920598 -0.058210466
-0.23355626 -0.67136186 -0.33747324 0.20761596 0.5645841 -0.26243332 0.2452119 -0.37291238
-0.17985442 0.19814526 -0.14619724 0.29111794 0.3858563 0.26434448 -0.15813616 0.06265678
00000000: 5bd0 a63d bb4e 0a3f fb3b f43e d9c1 e2be
00000010: 4d95 e53d 4ec2 90be 390a a83e 5fe0 653e
00000020: 392a 323d 61b8 c0bb 789d 113f 0c86 febe
00000030: 464e 13be a368 ae3e ff7c 56be 2467 273e
00000040: 4fcf 243e bf7b 67be 4420 e03e a2ec c4be
00000050: 1470 2abc 7c11 873e 2e68 02be 450d ccbd
00000060: 649f 243e 9ff1 513e 06c7 1dbd a8f7 9e3e
00000070: a61b e6be c56f e6be 5dd4 c03e 0854 56be
00000080: 820d 183e e6bd adbe 2d27 8ebe 6b7a 8d3e
00000090: 8cc0 e0be 4e19 e73d a77f c1be 5898 6f3e
000000a0: f1a7 2dbd 398c c5be 489f 6ebe 20c2 943d
000000b0: d2fd c2be b260 0d3e 3e00 cebc 621d 863e
000000c0: e664 fdbb 110c 983d 4f69 f4be b283 123e
000000d0: 387e b33e f34d 58be bf36 a2bd 196e 6ebd
000000e0: 5f29 6fbe 5fde 2bbf 4bc9 acbe 4799 543e
000000f0: 9588 103f a95d 86be d418 7b3e 5fee bebe
00000100: c22b 38be 97e6 4a3e bbb4 15be 690d 953e
00000110: f58e c53e 2958 873e 72ee 21be 3352 803d

dense_23/MatMul_bias f4 [128]
-0.00849298 -0.0099712955 -0.01674852 -0.07428427 0.009743315 -0.008551552 0.021640263 -0.0072079366
-0.009353534 -0.008046356 -0.040485796 -0.010290774 -0.011205569 -0.008685753 -0.003667352 -0.0067008566
-0.014347683 -0.0035653645 0.03902244 -0.015385858 0.004901798 0.005992463 -0.006593133 0.027700478
-0.009152651 -0.03040426 0.02166535 0.0065405536 0.027317794 0.010201709 -0.008731747 -0.006950913
-0.021794545 -0.0051770206 -0.032618262 -0.008626069 0.0073304838 -0.004901751 -0.0071137566 0.00721538
0.012727742 -0.008829199 -0.012594093 -0.007991014 -0.006924165 -0.0068961047 -0.021610072 -0.041976787
-0.036817085 -0.0045510107 -0.04207693 0.0054106493 0.014380323 -0.009850031 -0.010674844 -0.0055737286
-0.009217807 -0.0052214866 -0.024188923 -0.0055585434 -0.00790151 -0.005992417 -0.002007135 -0.0058005936
-0.0703852 -0.01048351 -0.011542051 -0.0075390995 -0.0074117444 -0.005010183 -0.008454024 0.013831191
-0.006663396 0.009604918 -0.019443903 -0.02772738 -0.026143039 -0.082484916 -0.0055299345 -0.0043451097
-0.013100078 -0.01455737 -0.015335123 -0.011197975 -0.004200111 -0.01482881 -0.033150103 -0.007423857
-0.009258815 -0.06334835 -0.0077064964 -0.025910694 -0.0068543367 -0.008101083 -0.006931423 -0.02646668
-0.016870191 -0.024408605 0.012483786 -0.07179797 -0.009093539 -0.02255664 0.011891608 -0.035294734
-0.01583005 -0.068307035 -0.007530392 -0.026524832 0.014379256 -0.008822095 -0.015346063 0.013267322
-0.008548136 -0.008045531 -0.01700533 0.016591452 -0.032666445 -0.010693499 -0.0441946 -0.013941746
-0.010568357 -0.038712513 -0.008461488 -0.026855303 -0.020050518 -0.03084242 0.002707154 -0.04415415
00000000: 2426 0bbc a55e 23bc 3134 89bc 5a22 98bd
00000010: 6da2 1f3c cf1b 0cbc ec46 b13c 8e30 ecbb
00000020: 913f 19bc ddd4 03bc 6fd4 25bd a29a 28bc
00000030: 9097 37bc b04e 0ebc f557 70bb dc92 dbbb
00000040: 8b12 6bbc e4a8 69bb fed5 1f3d f714 7cbc
00000050: 439f a03b 6c5c c43b 350b d8bb 1dec e23c
00000060: 00f5 15bc 5b12 f9bc 887b b13c 2452 d63b
00000070: 91c9 df3c 1225 273c 9a0f 0fbc 7cc4 e3bb
00000080: 798a b2bc ffa3 a9bb ba9a 05bd 5b54 0dbc
00000090: 8e34 f03b de9e a0bb 841a e9bb ff6e ec3b
000000a0: 0588 503c 58a8 10bc 7457 4ebc beec 02bc
000000b0: 1be4 e2bb b8f8 e1bb 9b07 b1bc daef 2bbd
000000c0: 83cd 16bd a520 95bb dc58 2cbd d14b b13b
000000d0: 729b 6b3c 0662 21bc 8ae5 2ebc d3a3 b6bb
000000e0: 4906 17bc 0119 abbb d927 c6bc 7124 b6bb
000000f0: 5675 01bc 0a5c c4bb 238a 03bb e812 bebb
00000100: 1e26 90bd 07c3 2bbc df1a 3dbc 8d0a f7bb
00000110: 38de f2bb 762c a4bb bf82 0abc 389c 623c
00000120: 9e58 dabb f25d 1d3c d248 9fbc 8824 e3bc
00000130: ed29 d6bc daed a8bd 7434 b5bb 6c61 8ebb
00000140: b6a1 56bc 0982 6ebc 2b40 7bbc b677 37bc
00000150: 16a1 89bb 89f4 72bc 67c8 07bd d443 f3bb
00000160: 49b2 17bc c8bc 81bd c786 fcbb aa42 d4bc
00000170: 589a e0bb 68ba 04bc fe20 e3bb a7d0 d8bc
00000180: 5b33 8abc 8ef4 c7bc cb88 4c3c d00a 93bd
00000190: 11fd 14bc b4c8 b8bc 05d5 423c 3691 10bd
000001a0: 05ae 81bc 8fe4 8bbd 82c1 f6bb 9b4a d9bc
000001b0: f996 6b3c 8c8a 10bc 0e6e 7bbc 2f5f 593c
000001c0: 7b0d 0cbc 67d1 03bc c34e 8bbc ccea 873c
000001d0: 40cd 05bd c933 2fbc 6605 35bd ec6b 64bc
000001e0: e726 2dbc 0391 1ebd 0ea2 0abc a7ff dbbc
000001f0: fc40 a4bc 3ea9 fcbc 826a 313b fbda 34bd

dense_23/kernel/transpose f4 [128, 1568]
-0.03807803 -0.07147755 0.009947339 -0.05912073 0.032757115 0.025901197 0.028566081 -0.055536624
0.00035472514 -0.02788402 -0.05752214 -0.054726772 0.042968214 -0.0075806733 -0.067104116 -0.026527578
0.046580944 -0.032692507 -0.009229152 0.011314826 0.043121953 0.0014791726 -0.008644606 -0.0071958974
-0.01383794 0.024416238 -0.045637283 -0.040539924 0.04181321 -0.05703778 -0.034184877 0.038426228
-0.040464643 0.040918242 0.04028861 0.00012438909 -0.023799509 0.034861512 -0.05835764 0.04472911
-0.06357903 0.022793313 0.011492807 0.04120518 -0.01463755 0.014769342 -0.017712856 -0.058344625
-0.04049676 -0.03128843 0.004602297 -0.019016588 -0.038809553 0.051878598 -0.00848009 0.007486664
0.04676387 -0.050843585 -0.034307744 -0.034016892 -0.04478527 0.028431293 0.049624357 -0.04367749
0.029816981 0.016453497 -0.04377614 -0.046397716 0.04549891 0.02313255 0.01866314 -0.03648026
-0.055048913 -0.029328033 0.00076058315 -0.044012874 0.049010724 0.018271388 0.03980536 0.044560283
-0.019909775 -0.08207057 0.024988618 -0.052337345 0.02636187 -0.018924538 -0.0025339024 -0.06482966
-0.025412804 0.01891767 -0.04969802 -0.038467363 0.00923803 -0.02658197 0.03494477 0.013567042
0.023590608 -0.036833327 0.0016617052 0.043991625 0.016574072 -0.033515345 -0.008800299 -0.06648975
0.02143084 -0.08258506 -0.06272188 0.03560541 -0.00466445 -0.061773997 -0.05534258 -0.018218786
0.04827939 -0.011276568 -0.033376217 0.0069309394 0.033003658 -0.062016223 -0.008733122 -0.06641982
-0.053562514 -0.0061640353 0.027353577 0.046710026 -0.03745552 0.022355415 -0.0049341028 0.018998815
0.02394772 -0.010219277 -0.043853916 0.005509446 0.024937084 0.022247681 0.018079637 0.016981352
-0.0067852563 -0.008257128 0.047668014 -0.02381151 -0.026092228 0.0364952 -0.014158414 0.047763545
0.036935195 0.0028411895 -0.062101793 0.03731837 0.0361589 -0.0059809648 0.05615249 -0.042332813
-0.040280703 0.054420736 0.028320258 -0.004117371 0.009791171 0.008135249 -0.0023726416 0.021392567
-0.0498489 0.021108082 -0.05242975 0.010766318 0.04770331 0.04266277 0.0059252875 -0.013824778
-0.0057023 -0.043254737 -0.05109852 -0.009226805 -0.04566867 0.0075177005 -0.038310334 -0.057808947
-0.047284678 -0.026365109 0.027451798 -0.05441114 -0.011128658 0.010231639 -0.011703226 -0.014363039
-0.06737684 -0.024412971 0.023696385 -0.0069543743 -0.0027250422 -0.04681319 0.033749778 -0.05072293
0.041327912 -0.06458475 0.022864698 -0.0036125272 -0.009512616 -0.028560963 -0.017056283 0.044198483
0.0016722166 -0.0040523536 0.024343688 -0.021622878 -0.033701044 0.01827344 -0.037449013 0.043611195
-0.06695275 0.00268918 0.03737717 -0.0022482676 0.004737683 0.04816952 -0.053913765 0.035986662
0.046504542 -0.034595337 -0.0612184 -0.009571255 0.012795084 -0.036217958 0.02482818 -0.0037596154
-0.019028263 -0.016825767 -0.063253626 -0.040084474 -0.06456221 0.036754142 0.010178057 -0.0023234363
0.012634515 0.00024553936 0.023957469 -0.06655224 -0.054043822 -0.018714035 -0.08454868 -0.041335903
0.029455902 0.055329897 -0.019141147 0.0061878706 -0.04022639 0.0024574227 -0.039444957 -0.0132298
-0.0058582504 0.0010823645 -0.033734083 0.0068926904 -0.024057468 -0.001293926 -0.023311203 0.036047608
00000000: b5f7 1bbd d262 92bd 2afa 223c 9428 72bd
00000010: 532c 063d bf2e d43c 6a03 ea3c 5f7a 63bd
00000020: 67fa b939 076d e4bc 569c 6bbd 2e29 60bd
00000030: 70ff 2f3d 4c67 f8bb e26d 89bd 5d50 d9bc
00000040: a9cb 3e3d 94e8 05bd df35 17bc d261 393c
00000050: a5a0 303d cce0 c13a 1ba2 0dbc 90cb ebbb
00000060: 87b8 62bc 9004 c83c 29ee 3abd 310d 26bd
00000070: 5444 2b3d 72a0 69bd 7105 0cbd d264 1d3d
00000080: 41be 25bd e399 273d ab05 253d 716e 0239
00000090: 30f7 c2bc f2ca 0e3d 6c08 6fbd df35 373d
000000a0: b935 82bd 0bb9 ba3c 544c 3c3c c3c6 283d
000000b0: 56d2 6fbc 1cfb 713c 8d1a 91bc c6fa 6ebd
000000c0: eedf 25bd 4c28 00bd dece 963b adc8 9bbc
000000d0: c4f6 1ebd a77e 543d 13f0 0abc b152 f53b
000000e0: 798b 3f3d 5d41 50bd 4786 0cbd 4c55 0bbd
000000f0: c270 37bd bee8 e83c e942 4b3d 2be7 32bd
00000100: be42 f43c 7cc9 863c 9c4e 33bd 880b 3ebd
00000110: 115d 3a3d 7980 bd3c 71e3 983c 536c 15bd
00000120: f87a 61bd 5841 f0bc df61 473a d846 34bd
00000130: 78bf 483d e1ad 953c f20a 233d d884 363d
00000140: d319 a3bc 9d14 a8bd eeb4 cc3c af5f 56bd
00000150: d9f4 d73c a207 9bbc d40f 26bb 6ac5 84bd
00000160: 832e d0bc 3bf9 9a3c 2790 4bbd f48f 1dbd
00000170: 1b5b 173c 6ec2 d9bc 3f22 0f3d 4c48 5e3c
00000180: 1741 c13c 8bde 16bd 93cd d93a 9030 343d
00000190: 59c6 873c 6347 09bd 212f 10bc c72b 88bd
000001a0: bb8f af3c 5b22 a9bd 5474 80bd fad6 113d
000001b0: 3ed8 98bb bb06 7dbd e7ae 62bd 903f 95bc
000001c0: 9cc0 453d 5bc1 38bc 80b5 08bd ef1c e33b
000001d0: d82e 073d b904 7ebd 5e15 0fbc 1d07 88bd
000001e0: 5e64 5bbd adfb c9bb 9c14 e03c 0353 3f3d
000001f0: f66a 19bd b422 b73c 41ae a1bb 67a3 9b3c
00000200: 022e c43c c16e 27bc 2aa0 33bd 9588 b43b
00000210: db48 cc3c c540 b63c bf1b 943c 7a1c 8b3c
00000220: db56 debb e848 07bc 893f 433d 5b10 c3bc
00000230: 5ebf d5bc fe7b 153d b1f8 67bc b5a3 433d
00000240: 5c49 173d 4033 3a3b 735e 7ebd 26db 183d
00000250: 5b1b 143d f8fb c3bb 2700 663d 2c65 2dbd
00000260: 61fd 24bd 47e8 5e3d e3ff e73c 03eb 86bb
00000270: 266b 203c b549 053c 527e 1bbb 773f af3c
00000280: 5c2e 4cbd dbea ac3c 94c0 56bd 3665 303c
00000290: 8c64 433d 28bf 2e3d ea28 c23b 5281 62bc
000002a0: 5cda babb e12b 31bd af4c 51bd 062c 17bc
000002b0: 120f 3bbd 0b57 f63b 4ceb 1cbd 13c9 6cbd
000002c0: 94ad 41bd a4fb d7bc 98e2 e03c 37de 5ebd
000002d0: fa54 36bc 9ba2 273c e3be 3fbc f452 6bbc
000002e0: defc 89bd b6fd c7bc ec1e c23c 85e1 e3bb
000002f0: 9f96 32bb 30bf 3fbd 353d 0a3d d9c2 4fbd
00000300: 7547 293d 0245 84bd bf4e bb3c 26c0 6cbb
00000310: ceda 1bbc aef8 e9bc 9eb9 8bbc 7809 353d
00000320: 472e db3a 9bc9 84bb 6a6c c73c 7622 b1bc
00000330: 1b0a 0abd 2eb2 953c 2364 19bd a7a1 323d
00000340: 861e 89bd f43c 303b ce18 193d ac57 13bb
00000350: 913e 9b3b 674d 453d aed4 5cbd c066 133d
00000360: 8c7b 3e3d d7b3 0dbd 25c0 7abd c1d0 1cbc
00000370: 79a2 513c 4859 14bd 7864 cb3c e163 76bb
00000380: 29e1 9bbc 31d6 89bc 1e8b 81bd 9e2f 24bd
00000390: 3139 84bd 838b 163d ddc1 263c cb44 18bb
000003a0: ff00 4f3c bcbb 8039 7442 c43c 8a4c 88bd
000003b0: 0e5d 5dbd 2d4e 99bc dc27 adbd d64f 29bd
000003c0: 814d f13c 9aa1 623d e5cd 9cbc 9fc3 ca3b
000003d0: 6dc4 24bd b60c 213b 0991 21bd cec1 58bc
000003e0: 91f6 bfbb 20de 8d3a c02c 0abd 14dc e13b
000003f0: 2b14 c5bc f498 a9ba 23f7 bebc a8a6 133d

dense_24/MatMul_bias f4 [11]
0.13100424 0.07487779 -0.08001293 0.023259794 0.056776326 -0.007075073 -0.0007751018 0.046401758
0.037526242 -0.021340273 -0.13906646
00000000: fa25 063e 8759 993d d2dd a3bd 538b be3c
00000010: 4b8e 683d 04d6 e7bb 3430 4bba c50f 3e3d
00000020: 1eb5 193d ccd1 aebc 7067 0ebe

dense_24/kernel/transpose f4 [11, 128]
0.115819186 -0.05663611 0.13326985 0.21583176 0.24360709 -0.029448949 0.031200986 -0.1680823
0.1045562 -0.079535805 -0.15128331 -0.10541156 0.24223766 0.123553 -0.486927 0.20887657
0.009914649 -0.023268236 -0.2716477 -0.11796272 -0.501891 -0.7533667 -0.088445276 -0.26580954
0.27358773 -0.12512867 -0.37802672 -0.31721088 -0.38975474 0.20581318 -0.16351447 0.20977604
0.061021503 -0.043804254 0.10197491 -0.026858697 0.09944142 0.020101987 0.16502303 -0.24080965
0.23829246 -0.030419648 0.17126353 0.13371542 -0.089098506 -0.13130572 0.07084514 -0.39543885
-0.6432757 -0.10965595 -0.16124858 0.010936506 -0.4810724 0.18314677 -0.5380473 -0.032523006
-0.066447236 -0.37261102 0.052493256 -0.09567262 0.12568673 0.019768078 0.083270766 0.016173083
0.1005422 -0.025436543 0.11435387 -0.20303638 0.107598886 -0.2402875 0.083295055 -0.3423295
0.037836026 -0.15081465 -0.14027476 0.09959506 0.19238932 0.26446718 0.08404759 0.018517302
0.18583024 0.17060778 -0.16853952 0.22332482 -0.23623762 -0.5727452 -0.052827902 0.15497625
0.03549517 0.006140039 -0.20886737 0.101739466 -0.2785276 -0.11159629 0.24245456 -0.38794333
0.19403856 0.091445304 0.30008203 0.20276804 -0.1957822 0.22709203 -0.47468874 0.2267868
-0.41562736 -0.11299481 0.041280117 -0.016510928 0.13653073 0.023179112 -0.56129515 -0.18692419
0.13739884 0.04889337 -0.040036373 0.26418367 -0.058100436 -0.28729713 0.38698453 -0.060053322
-0.08870192 0.16887036 -0.008548718 -0.19859889 0.06659217 0.17608616 -0.042686034 0.11374172
-0.10568812 -0.06573611 0.1423411 -0.31797576 -0.5065381 0.16789335 0.18247299 -0.15109816
0.18697643 0.12621549 0.14268707 -0.14122617 -0.28561437 -0.033271834 0.2684266 -0.19596168
0.069535926 0.15101467 0.19519588 0.022851076 -0.17874491 0.08615296 -0.19121765 0.4223299
-0.1606167 -0.13651402 0.16764115 0.13596474 0.2037294 -0.32386106 0.17021292 0.14587733
0.15114094 -0.07769891 -0.09228563 -0.160197 0.26135328 0.19726956 0.12914309 0.27022183
0.33708477 0.13755646 -0.033456586 -0.163424 -0.1400176 0.10750436 0.21719694 -0.67474204
-0.38514704 -0.15659504 -0.45253342 0.31156108 0.20606275 -0.11623286 -0.21769819 0.02124376
0.04562137 0.08163424 0.04448608 -0.0044001634 -0.2056371 0.09412932 -0.40370256 -0.038781095
-0.3777953 0.049546886 0.14651398 0.07504851 -0.030192332 0.21179916 -0.17974533 0.18440174
0.16904959 0.25905812 -0.1884272 -0.21711619 -0.64503485 -0.26563442 0.028192116 -0.18622608
-0.15467542 0.14296256 -0.20020287 -0.45162022 -0.24470316 0.10000821 0.08397071 -0.12604873
-0.17283104 -0.7046853 0.021953542 0.12734765 -0.37860477 -0.15805419 -0.40287364 -0.5997702
0.05564239 0.107399195 0.29344407 0.08933936 -0.20366597 -0.39828664 0.104653865 -0.39651513
0.04786094 0.20358709 -0.16626164 -0.060571443 0.26123008 -0.014521916 0.19081265 0.29261476
-0.049323134 0.026900679 0.16393161 0.26610824 -0.09212214 -0.5267904 -0.04486443 0.051644374
0.14640428 0.09700874 -0.20042665 0.08497154 -0.051205054 0.18383224 -0.39749774 0.17063129
00000000: 9c32 ed3d 44fb 67bd e477 083e 0003 5d3e
00000010: 2374 793e ec3e f1bc 3699 ff3c c41d 2cbe
00000020: 9021 d63d abe3 a2bd 03ea 1abe 04e2 d7bd
00000030: 260d 783e 5b09 fd3d 7f4e f9be bde3 553e
00000040: 0d71 223c 079d bebc 6815 8bbe 7096 f1bd
00000050: ee7b 00bf a4dc 40bf cc22 b5bd 3018 88be
00000060: b113 8c3e bb21 00be b88c c1be 7769 a2be
00000070: ef8d c7be b1c0 523e 5670 27be 88cf 563e
00000080: aff1 793d 176c 33bd 39d8 d03d c506 dcbc
00000090: f1a7 cb3d ecac a43c ccfb 283e ce96 76be
000000a0: f002 743e a032 f9bc b55f 2f3e b2ec 083e
000000b0: 4779 b6bd 0275 06be 4217 913d f676 cabe
000000c0: b7ad 24bf 4c93 e0bd 591e 25be 082f 333c
000000d0: 1f4f f6be d48a 3b3e 78bd 09bf d836 05bd
000000e0: 7d15 88bd dfc6 bebe 2b03 573d 02f0 c3bd
000000f0: 06b4 003e aaf0 a13c dd89 aa3d 6a7d 843c
00000100: 12e9 cd3d 4c60 d0bc 5d32 ea3d c5e8 4fbe
00000110: ce5c dc3d ed0d 76be 9996 aa3d d045 afbe
00000120: f3f9 1a3d 286f 1abe 30a4 0fbe 7ff8 cb3d
00000130: b501 453e 3e68 873e 2521 ac3d 99b1 973c
00000140: 484a 3e3e ceb3 2e3e a095 2cbe 43af 643e
00000150: 46e8 71be 6e9f 12bf 1262 58bd 18b2 1e3e
00000160: 6263 113d 6132 c93b 54e1 55be c85c d03d
00000170: 2b9b 8ebe 988c e4bd 0246 783e 82a0 c6be
00000180: 0bb2 463e ad47 bb3d 5aa4 993e 6da2 4f3e
00000190: 217b 48be d08a 683e 670a f3be cd3a 683e
000001a0: 1ccd d4be d369 e7bd 5715 293d ed41 87bc
000001b0: b6ce 0b3e 1fe2 bd3c 0ab1 0fbf 0e69 3fbe
000001c0: 48b2 0c3e 6a44 483d 2efd 23bd 1543 873e
000001d0: b9fa 6dbd 9c18 93be d622 c63e 79fa 75bd
000001e0: 5aa9 b5bd 5aec 2c3e ec0f 0cbc 825d 4bbe
000001f0: 7a61 883d ee4f 343e 8dd7 2ebd 6bf1 e83d
00000200: 0373 d8bd a7a0 86bd dec1 113e b8cd a2be
00000210: 7bac 01bf 3cec 2b3e 33da 3a3e 7ab9 1abe
00000220: c076 3f3e a23e 013e 8f1c 123e 989d 10be
00000230: 0c3c 92be 0c48 08bd 366f 893e 2eaa 48be
00000240: da68 8e3d 97a3 1a3e 6ee1 473e 2e32 bb3c
00000250: e808 37be f770 b03d 8fce 43be a03b d83e
00000260: b478 24be 55ca 0bbe 1faa 2b3e 573a 0b3e
00000270: 719e 503e 1ed1 a5be 4c4c 2e3e de60 153e
00000280: b1c4 1a3e 9b20 9fbd 4000 bdbd af0a 24be
00000290: 19d0 853e 0801 4a3e 163e 043e 845a 8a3e
000002a0: 6096 ac3e 9adb 0c3e c609 09bd 9f58 27be
000002b0: c660 0fbe 3f2b dc3d e068 5e3e e5bb 2cbf
000002c0: fe31 c5be 735a 20be 76b2 e7be ef84 9f3e
000002d0: 1d02 533e 7e0b eebd 46ec 5ebe 6507 ae3c
000002e0: 79dd 3a3d da2f a73d 0937 363d 3f2f 90bb
000002f0: 8892 52be dfc6 c03d 1ab2 cebe edd8 1ebd
00000300: 636e c1be adf1 4a3d c307 163e 09b3 993d
00000310: e955 f7bc e1e1 583e 290f 38be cfd3 3c3e
00000320: 561b 2d3e 44a3 843e 0ff3 40be b553 5ebe
00000330: 0121 25bf 3c01 88be 27f3 e63c 0db2 3ebe
00000340: 3c63 1ebe c764 123e fb01 4dbe c43a e7be
00000350: 7793 7abe 1bd1 cc3d d6f8 ab3d eb12 01be
00000360: 9ffa 30be 4166 34bf ead7 b33c 6c67 023e
00000370: 7cd8 c1be f5d8 21be 7445 cebe 8a8a 19bf
00000380: 46e9 633d 1cf4 db3d 4d3e 963e 8ef7 b63d
00000390: d08d 50be 3aec cbbe c454 d63d 0804 cbbe
000003a0: d509 443d 2279 503e 7e40 2abe c319 78bd
000003b0: f3bf 853e 55ed 6dbc 6464 433e 9ad1 953e
000003c0: 0e07 4abd d05e dc3c b0dd 273e 573f 883e
000003d0: 88aa bcbd bcdb 06bf c4c3 37bd 0d89 533d
000003e0: 01eb 153e 85ac c63d a53c 4dbe 8f05 ae3d
000003f0: 64bc 51bd 853e 3c3e d384 cbbe f8b9 2e3e
