data/wgp.tflite (tflite, 415228 bytes, 8 tensors)

conv2d_1/Conv2D_bias f4 [8]
0	0x3e9c1936	0.30487984
1	0x3e945128	0.28968167
2	0xbc7a580e	-0.015279783
3	0x3d6dddf5	0.058073003
4	0x3da7c769	0.08192331
5	0x3c26041d	0.010132817
6	0x3ed9b1f5	0.42518583
7	0xbcb9bd4b	-0.02267327

conv2d_1/kernel f4 [1, 3, 3, 8]
0	0x3ec6acff	0.3880386
1	0x3ebdef52	0.3709665
2	0xbefffc54	-0.499972
3	0x3ca52bde	0.020162519
4	0xbc812cdf	-0.015768467
5	0x3e15ee58	0.14641702
6	0xbe4a7382	-0.19770625
7	0x3eae043a	0.339876
8	0xbc253ad1	-0.010084824
9	0xbe38f2f1	-0.18061425
10	0x3cb0bcfa	0.021574486
11	0xbdb99aed	-0.09062753
12	0xbedf7ebe	-0.43651384
13	0x3ede044d	0.43362656
14	0xbe69f7ff	-0.22848509
15	0x3e5da792	0.21645954
16	0xbcb92250	-0.02259937
17	0xbe0058e6	-0.12533912
18	0xbeddf506	-0.43351
19	0x3d9e0d70	0.07717407
20	0xbed83915	-0.4223105
21	0x3eb0ceff	0.34532925
22	0x3f000a58	0.50015783
23	0x3b156ad9	0.0022799282
24	0x3d83e30c	0.0643979
25	0x3c8b6098	0.017013833
26	0x3d0cb402	0.034351356
27	0x3ece8173	0.40333137
28	0x3e874804	0.2642213
29	0xbc468d27	-0.012118614
30	0x3a9237e8	0.0011155577
31	0x3ea1d1e9	0.3160546
32	0xbf004e8d	-0.5011986
33	0xbeb403ad	-0.35159054
34	0xbd3abea9	-0.045591984
35	0xbedd94de	-0.4327764
36	0xbe8581e8	-0.26075673
37	0xbe120af5	-0.14261992
38	0xbedccbd3	-0.43124256
39	0x3dbee54b	0.09321078
40	0xbe61ca0c	-0.22049731
41	0x3b4d34c3	0.0031311966
42	0x3e37c4ab	0.17946117
43	0x3e20307b	0.15643494
44	0xbe52ab96	-0.20573267
45	0xbdd8dae3	-0.10588624
46	0x3e27e0f1	0.16394402
47	0x3e2d5727	0.16927777
48	0x3e26e922	0.1629987
49	0x3e67a849	0.2262279
50	0x3e9d3f7e	0.30712503
51	0x3e442b72	0.19157198
52	0x3eb2f9ad	0.34956113
53	0xbdd65059	-0.10464544
54	0xbde79139	-0.11306996
55	0xbe9972ed	-0.29970494
56	0xbea0cbb7	-0.31405422
57	0x3e7989b3	0.24368934
58	0x3e9f5e4e	0.31126636
59	0xbeb9f4ce	-0.36319584
60	0x3e2b178e	0.16708204
61	0xbe621437	-0.22078024
62	0xbebe23ae	-0.37136596
63	0xbe4af0a3	-0.19818358
64	0x3e2c18e1	0.16806366
65	0xbeed2346	-0.46315974
66	0x3ea638ab	0.3246511
67	0x3b8e10d6	0.004335503
68	0x3ee8cfb9	0.4547098
69	0xbe93eead	-0.28893033
70	0x3e3deb01	0.18546678
71	0xbe718193	-0.23584585

conv2d_2/Conv2D_bias f4 [16]
0	0xbe82ba62	-0.25532824
1	0xbcbfbd91	-0.023405822
2	0xbd53b333	-0.05168457
3	0x3b7cbf39	0.0038566126
4	0xbd2e3d55	-0.04253896
5	0xbdc30970	-0.095232844
6	0xbd44d304	-0.048052803
7	0xbd88e77b	-0.066847764
8	0xbd8f5500	-0.06998634
9	0xbde18f7f	-0.11013698
10	0xbd2af88b	-0.041740935
11	0xbbc9c0f0	-0.006157033
12	0xbcb7c4ce	-0.022432711
13	0xbdeec04b	-0.11657771
14	0xbd7df8ca	-0.062004842
15	0xbd413ec3	-0.047178995

conv2d_2/kernel f4 [16, 3, 3, 8]
0	0x3cb2ceb6	0.021827083
1	0x3d3f25dc	0.046666965
2	0x3ce1dce5	0.027571151
3	0x3e3655df	0.17806195
4	0x3e889140	0.26673317
5	0xbe51ddf9	-0.20494832
6	0x3e140763	0.14455943
7	0xbd928a0f	-0.07155239
8	0x3dbba4c2	0.091622844
9	0x3e79ef8d	0.24407788
10	0x3cb807f0	0.022464722
11	0x3f031cf0	0.5121603
12	0x3e4c6d7b	0.19963638
13	0xbd939f7b	-0.07208153
14	0xbca99d5c	-0.020704918
15	0x3ccea34e	0.025224354
16	0x3d86ad6b	0.065760456
17	0x3d4fe931	0.050759498
18	0xbe78c97c	-0.2429561
19	0x3e29465c	0.16530746
20	0xbe11eb25	-0.14249857
21	0x3e2700e3	0.16308932
22	0x3ea0b78d	0.31390038
23	0xbe36c8d1	-0.17850043
24	0xbea296b1	-0.31755593
25	0xbeb33655	-0.3500239
26	0xbcd90ff8	-0.026496872
27	0xbd1f01fe	-0.03882026
28	0xbe49caf6	-0.1970633
29	0xbea36285	-0.31911102
30	0x3b8a168d	0.004214114
31	0xbcea4272	-0.028596137
32	0x3cf703eb	0.030153235
33	0x3e2de731	0.16982724
34	0x3e07fd60	0.13280249
35	0x3e680e8d	0.226618
36	0x3e34f7db	0.17672674
37	0xbe54b7c5	-0.20773228
38	0xbed0352d	-0.4066557
39	0x3d931179	0.07181067
40	0x3e2db603	0.16963963
41	0x3edb15d1	0.42790082
42	0xbdce2ffa	-0.100677446
43	0x3d92472b	0.071424805
44	0x3e13d33b	0.14436047
45	0xbd822dad	-0.06356368
46	0x3e456ad7	0.19279037
47	0xbe75fe91	-0.2402289
48	0xbeefde1c	-0.46849144
49	0xbf0c508e	-0.54810417
50	0x3d24952b	0.04018132
51	0x3cbeead5	0.023305336
52	0xbeaf0978	-0.34186912
53	0x3d3df293	0.046373915
54	0xbcd8396b	-0.026394567
55	0x3dcd4e25	0.100246705
56	0xbe80bde9	-0.2514489
57	0xbeaed767	-0.34148714
58	0x3e15efd9	0.14642276
59	0xbd73501a	-0.059402563
60	0x3dd36004	0.10321048
61	0xbde932d2	-0.11386646
62	0xbee661e1	-0.4499655
63	0x3d89f1b3	0.067355536
64	0xbd504765	-0.050849337
65	0x3cbbeec7	0.022941006
66	0x3e27e1ea	0.16394773
67	0xbdd46dd1	-0.10372508
68	0x3edc6622	0.4304667
69	0xbe3dd8c9	-0.18539728
70	0xbe010dea	-0.12602964
71	0xbd0f52fc	-0.03499125
72	0xbb8500d6	-0.0040589375
73	0x3cbde9c0	0.02318275
74	0xbdd5866f	-0.10426032
75	0xbd037206	-0.032091163
76	0x3dff8157	0.124758415
77	0xbe7b8df2	-0.24565867
78	0x3e89fc70	0.26950407
79	0xbe79df9f	-0.24401711
80	0x3e095739	0.13412179
81	0xbdf1ea45	-0.118122615
82	0xbe25488e	-0.16140959
83	0xbb9f6e63	-0.004865454
84	0x3df7ee10	0.12105954
85	0xbd804da2	-0.06264807
86	0x3e9daeb1	0.3079734
87	0xbdf4c169	-0.119509526
88	0x3d0c7ff7	0.034301724
89	0x3daa9c17	0.08330553
90	0xbdf8c055	-0.121460594
91	0x3d8ca739	0.06867833
92	0xbe136cb5	-0.14396937
93	0xbb6eb44e	-0.0036423388
94	0x3e7de0a3	0.24792723
95	0xbe3a2cbf	-0.18181132
96	0x3e0f9381	0.14021112
97	0x3d72783a	0.05919669
98	0xbd857e5c	-0.06518242
99	0xbde3fe84	-0.111325294
100	0x3dbb6e9f	0.09151959
101	0xbeeea384	-0.46609128
102	0xbd565850	-0.052330315
103	0xbe816c38	-0.25277877
104	0xbda1813a	-0.07885976
105	0xbd2d3101	-0.042283062
106	0x3de75006	0.1129456
107	0xbcdfda89	-0.027325885
108	0x3db737b0	0.089461684
109	0xbe6a0196	-0.22852167
110	0xbadeab18	-0.0016988246
111	0xbea7f47b	-0.3280371
112	0x3db404fa	0.08790012
113	0x3e2605ad	0.16213103
114	0xbddd8c34	-0.10817757
115	0xbd7f02df	-0.062258597
116	0x3c1426e7	0.009042478
117	0xbe85c421	-0.26126197
118	0x3e0547b1	0.1301563
119	0xbebba0c3	-0.3664609
120	0xbde5d269	-0.11221773
121	0xbe744e54	-0.23858005
122	0x3e41ac62	0.18913415
123	0xbe3cec5f	-0.18449543
124	0x3ebb39a7	0.36567423
125	0x3bd8177f	0.006594598
126	0xbdf0f88d	-0.11766157
127	0x3e59b4c0	0.21260357
128	0xbdfbe053	-0.12298646
129	0xbe19b07e	-0.15008733
130	0x3ecb344b	0.39688334
131	0xbdee7dc6	-0.11645083
132	0x3f02fcde	0.51167095
133	0xbcaa455b	-0.020785024
134	0xbe7af3a6	-0.24507007
135	0xbd44a37e	-0.04800748
136	0xbe15681e	-0.14590499
137	0xbde69a5a	-0.11259909
138	0x3ec727e4	0.38897622
139	0xbe792808	-0.24331677
140	0x3f20571c	0.6263292
141	0xbdacb924	-0.0843375
142	0xbed88916	-0.42292088
143	0x3d073757	0.03301176
144	0x3e41cc26	0.18925533
145	0x3ccf9806	0.025341045
146	0xbe5b26ad	-0.21401472
147	0x3e5d2dd9	0.2159952
148	0xbe7d78c4	-0.247531
149	0x3ec1c6ea	0.37847072
150	0x3db98f43	0.09060528
151	0x3d51778b	0.051139396
152	0x3dffb2f2	0.12485303
153	0x3e0c76bd	0.1371717
154	0x3d3cac7b	0.046062928
155	0xbc706cd2	-0.014674382
156	0x3d829a63	0.06377103
157	0x3e88116d	0.26575795
158	0xbbd23e5b	-0.0064161248
159	0x3da42f9b	0.080168925
160	0x3e14766b	0.14498298
161	0xbe4b3b5f	-0.19846867
162	0x3da2e248	0.07953316
163	0xbd5e54ec	-0.054280207
164	0x3d5722ff	0.05252361
165	0x3e15e111	0.14636637
166	0x3d9c7bc6	0.076407954
167	0xbe461863	-0.1934524
168	0x3d05dc5f	0.032680865
169	0x3c885798	0.01664333
170	0xbeb0766e	-0.34465355
171	0xbe3ed8c9	-0.18637384
172	0xbcdd293b	-0.0269972
173	0x3d232165	0.03982677
174	0x3e8a00f9	0.26953867
175	0xbe2b7f2a	-0.16747728
176	0x3df7fbe1	0.12108589
177	0xbcc8942f	-0.024484722
178	0xbdc4e1bf	-0.0961337
179	0xbe96b2ff	-0.29433438
180	0xbe230d84	-0.15923125
181	0x3ba4a6f8	0.005024787
182	0x3c42aaa9	0.011881509
183	0xbce8fde6	-0.02844138
184	0xbcbbcfdc	-0.022926264
185	0xbd237c8b	-0.039913695
186	0x3ddbc6e7	0.10731297
187	0xbe6fe220	-0.23426104
188	0xbd6a5e64	-0.057218924
189	0x3e3f6c4c	0.18693656
190	0x3e043e78	0.12914455
191	0xbd253198	-0.0403305
192	0xbdb855ed	-0.09000764
193	0xbe34aee4	-0.1764484
194	0xbd5cfb7e	-0.05395078
195	0xbe0b50d2	-0.13605049
196	0x3c4b7aa3	0.012419376
197	0xbdf33e33	-0.11877098
198	0x3ea63099	0.32458952
199	0xbeb4d695	-0.35319963
200	0xbe62b702	-0.22140124
201	0x3d4ac475	0.049503762
202	0xbd9eb368	-0.07749063
203	0xbe2ecac6	-0.1706954
204	0xbe99e43f	-0.3005695
205	0x3ea43e1b	0.32078633
206	0xbd08a5da	-0.033361293
207	0xbdb79641	-0.089642055
208	0x3d8ab860	0.06773448
209	0x3d0b62f3	0.034029912
210	0xbe88bfeb	-0.26708922
211	0xbd191f2b	-0.03738324
212	0xbec31af4	-0.381065
213	0x3e023fba	0.12719622
214	0xbde7f218	-0.113254726
215	0xbd5e7506	-0.05431082
216	0xbb888890	-0.00416667
217	0x3e023717	0.12716328
218	0x3e135faa	0.14391962
219	0xbe717d48	-0.23582947
220	0x3d01c4f1	0.03168196
221	0xbe82c8a0	-0.2554369
222	0xbf0ce017	-0.55029434
223	0x3e177256	0.1478971
224	0x3e98ac61	0.29819015
225	0x3df27a2e	0.1183971
226	0x3ded602f	0.11590611
227	0x3e368d18	0.1782726
228	0x3e0e2626	0.1388174
229	0xbe35a0b8	-0.1773709
230	0xbe1f681a	-0.15567055
231	0xbd7675af	-0.060170826
232	0x3e85967c	0.26091373
233	0x3e295988	0.1653806
234	0x3e1f520f	0.15558647
235	0xbc814ff0	-0.015785187
236	0x3eb15f7e	0.34643167
237	0x3d4089bc	0.047006354
238	0xbdb4a104	-0.08819774
239	0xbdc1b7bb	-0.09458872
240	0xbe019469	-0.1265427
241	0xbe59bbc8	-0.21263039
242	0xbd1c4227	-0.038149025
243	0xbe4de0d9	-0.20105304
244	0xbe104e5f	-0.14092396
245	0xbd6cfc52	-0.05785782
246	0xbecda52d	-0.40165082
247	0x3e3203f1	0.17384316
248	0xbea386d8	-0.31938815
249	0xbe308378	-0.17237651
250	0x3d857139	0.06515736
251	0xbec093df	-0.37612817
252	0xbd3f2541	-0.046666387
253	0x3d3e58ad	0.046471287
254	0xbee5a449	-0.44851902
255	0x3d65d590	0.056111872

dense_1/MatMul_bias f4 [128]
0	0x3c4b350e	0.012402786
1	0x3d8b45d3	0.06800427
2	0xbd19551f	-0.037434693
3	0xbd0e3899	-0.034721944
4	0xbcfb65d4	-0.030688204
5	0xbc90ed32	-0.017691229
6	0x3c3ae118	0.011406206
7	0xbd147009	-0.036239658
8	0xbc357ec9	-0.011077591
9	0xbc1640f4	-0.0091707595
10	0xbd242c3d	-0.04008125
11	0xbd04ede4	-0.032453433
12	0xbd12236f	-0.035678323
13	0x3d0a0413	0.03369529
14	0x3c52fe7e	0.0128780585
15	0xbc854312	-0.016267333
16	0xbc80d736	-0.01572762
17	0xbcc8d489	-0.024515407
18	0x3c4d858d	0.012544048
19	0xbd1f15b6	-0.038839065
20	0xbd01466a	-0.031561293
21	0x3d092274	0.033480123
22	0xbd2076a5	-0.03917565
23	0xbcde0210	-0.027100593
24	0xbd0fe154	-0.035127
25	0xbd590f6e	-0.05299323
26	0xbcedbe2d	-0.029021347
27	0xbc9ef881	-0.019405605
28	0x3d22f1a8	0.039781243
29	0xbbc8183e	-0.0061064055
30	0xbd14a51a	-0.036290266
31	0xbc32454b	-0.010880779
32	0xbc63bfd7	-0.013900719
33	0xbc3922fb	-0.011299844
34	0x3c3f7fbd	0.01168817
35	0xbc226053	-0.009910661
36	0xbc1dc157	-0.009628615
37	0x3d365cc2	0.044522054
38	0xbd24ef5f	-0.040267345
39	0x3c64bc73	0.013960945
40	0xbccba929	-0.024860935
41	0xbca1dc39	-0.01975833
42	0x3c69ace5	0.014262413
43	0x3d329591	0.04359967
44	0xbd081fde	-0.033233516
45	0xbca7906d	-0.02045461
46	0xbce0d0e0	-0.02744335
47	0x3c16efaf	0.009212418
48	0x3b8602e9	0.0040897024
49	0xbc8ba95a	-0.017048527
50	0xbc7880cf	-0.015167429
51	0xbd0466dd	-0.03232466
52	0xbd89dcab	-0.06731542
53	0x3d48a4ae	0.048985176
54	0xbce94e71	-0.028479787
55	0xbd077f83	-0.03308059
56	0xbc754f8b	-0.014972578
57	0xbccc1492	-0.024912152
58	0xbc848026	-0.016174387
59	0xbc321f53	-0.010871726
60	0xbbadc459	-0.0053029475
61	0xbd128f73	-0.035781335
62	0xbcddaa58	-0.027058765
63	0xbc4a42ee	-0.012345059
64	0x3c107b0d	0.0088184
65	0x3ba04826	0.0048914133
66	0xbc4e99bd	-0.012609896
67	0x3d54a983	0.05191947
68	0xbc053d40	-0.008132279
69	0xbc9e4e97	-0.019324584
70	0x3d1c09c1	0.03809524
71	0x3c9bf3ac	0.01903709
72	0xbcce8050	-0.025207669
73	0xbd18ab6e	-0.037272863
74	0xbd7467a3	-0.05966915
75	0xbc6a292d	-0.014292044
76	0xbc623796	-0.013807198
77	0xbc1fbb99	-0.009749317
78	0xbd140ae2	-0.03614319
79	0x3ce8a590	0.028399259
80	0x3cf5737e	0.029962298
81	0xbd05557d	-0.03255223
82	0xbcb26131	-0.02177486
83	0xbc15a735	-0.009134104
84	0xbcd39f41	-0.025832774
85	0x3ccfe44a	0.025377411
86	0xbc2745b7	-0.010209492
87	0xbd0453a1	-0.032306317
88	0xbd031537	-0.032002654
89	0x3c89896b	0.016789159
90	0x3cb35b7e	0.021894213
91	0x3a7de348	0.00096850516
92	0xbcbea5b3	-0.02327237
93	0x3d30029a	0.04297123
94	0xbd07086d	-0.03296702
95	0x3b7b197a	0.0038314746
96	0x3ae58b8d	0.0017512903
97	0x3c604620	0.013688594
98	0x3ce06802	0.027393345
99	0x3d5bf75b	0.053702693
100	0xbce4ccf9	-0.02792977
101	0xbcb4e06a	-0.022079665
102	0x3d8c1495	0.06839863
103	0x3bbbc23b	0.005729941
104	0xbd161529	-0.036641274
105	0xbd08bd2e	-0.03338354
106	0xbc310969	-0.010805466
107	0xbc921080	-0.017830133
108	0xbcc01eb2	-0.023452137
109	0xbc517563	-0.012784335
110	0xbc0653b2	-0.008198665
111	0xbd2d758e	-0.042348437
112	0xbd009395	-0.031390745
113	0x3c60ae8f	0.013713493
114	0xbc3b8561	-0.011445374
115	0x3d412a46	0.047159456
116	0xbd89a2a5	-0.06720475
117	0xbc8626e4	-0.016375966
118	0x3c294727	0.010331905
119	0xbb13d840	-0.0022559315
120	0x3b8a156f	0.004213981
121	0xbd6d5609	-0.057943378
122	0xbca1ab1f	-0.019734917
123	0xbd14eb97	-0.03635749
124	0xbc822509	-0.0158868
125	0xbc3e862e	-0.011628671
126	0x3c547aca	0.012968728
127	0xbc3ba4ba	-0.011452848

dense_1/kernel/transpose f4 [128, 784]
0	0xbd4fd280	-0.050737858
1	0x3dc715ff	0.09720992
2	0xbe2cdee4	-0.16881901
3	0x3d9197e5	0.0710905
4	0xbd813599	-0.06309051
5	0x3d43f34e	0.047839455
6	0xbdd29ecf	-0.102841966
7	0xbe49f569	-0.19722523
8	0xbce2dc58	-0.027692959
9	0x3e010e87	0.12603198
10	0xbdc92c8f	-0.09822952
11	0xbc93cbe3	-0.018041557
12	0x3e1f50be	0.15558144
13	0x3dbbf0db	0.09176799
14	0x3e0d4e7a	0.13799468
15	0xbd307fbe	-0.043090574
16	0xbd5b787a	-0.053581692
17	0xbdd0115e	-0.101595625
18	0xbe505ec5	-0.20348652
19	0x3e022467	0.12709199
20	0x3c91aa05	0.017781267
21	0x3cf1fb61	0.029538812
22	0x3e1c4a97	0.15262829
23	0xbd84e45d	-0.06488869
24	0xbe92f4b5	-0.28702322
25	0x3dc2cc63	0.0951164
26	0xbe6089de	-0.21927592
27	0xbe2e3519	-0.17012443
28	0xbeaa5d9f	-0.33274552
29	0xbd2fc72c	-0.042914554
30	0x3e087cde	0.13328883
31	0xbe02c309	-0.12769713
32	0xbdcb7bfe	-0.09935759
33	0xbd8d3f41	-0.0689683
34	0xbdef939c	-0.11698076
35	0x3daf8852	0.08570923
36	0x3d3b091a	0.045662977
37	0x3da66402	0.08124544
38	0x3e7fde38	0.24987113
39	0xbdb32f13	-0.08749213
40	0xbe940fd2	-0.2891832
41	0x3e8949a5	0.26814
42	0x3d0cc613	0.034368586
43	0xbdc03e97	-0.09386938
44	0xbe9bf606	-0.30461138
45	0xbd1dc8dc	-0.038521633
46	0x3dc0a22b	0.09405931
47	0xbe48364f	-0.19551967
48	0xbe1bc83f	-0.15213107
49	0x3cdca41a	0.026933718
50	0xbe8153db	-0.2525929
51	0xbd60e6f2	-0.054907747
52	0x3e8ea5d0	0.2786088
53	0x3ce5f6d3	0.028071797
54	0x3dbead0d	0.093103506
55	0x3e23622b	0.15955417
56	0xbda9e47e	-0.082955346
57	0xbcf1851b	-0.029482415
58	0x3e246981	0.16055872
59	0xbcb5193e	-0.022106763
60	0xbe816bc7	-0.2527754
61	0x3d5fa1c1	0.05459762
62	0x3d9155d9	0.07096452
63	0xbdc10691	-0.094250806
64	0x3cdd9225	0.027047226
65	0x3d4e72dc	0.050402507
66	0x3e1a61d1	0.15076376
67	0xbe130693	-0.14357977
68	0x3e54e096	0.20788798
69	0x3d7365c6	0.05942323
70	0xbdcfa2e0	-0.10138488
71	0xbd73906c	-0.059463903
72	0x3d766b87	0.06016114
73	0xbd9a8da1	-0.07546545
74	0xbd5fcce5	-0.054638762
75	0xbde1d591	-0.11027063
76	0x3d282589	0.04105142
77	0x3dabb69f	0.083844416
78	0x3d370e36	0.044691287
79	0x3e27aba5	0.16374071
80	0x3dc7c22a	0.09753831
81	0xbd75dd23	-0.060025346
82	0x3dc204a1	0.09473539
83	0x3c4c5113	0.0124705015
84	0xbdf6bef0	-0.12048137
85	0xbb76790c	-0.003760877
86	0xbe591362	-0.211988
87	0xbd67d05d	-0.056595195
88	0xbd074685	-0.033026237
89	0x3e0909b6	0.1338261
90	0xbde56534	-0.112009436
91	0xbd222674	-0.039587453
92	0x3d03b70f	0.032157
93	0x3d4ecc15	0.050487597
94	0xbd4b0071	-0.049560968
95	0x3cccf194	0.025017537
96	0x3d38a62a	0.04508034
97	0x3b9e9242	0.0048392126
98	0xbc3e7725	-0.011625086
99	0xbb87e85b	-0.004147572
100	0xbe0178a9	-0.12643684
101	0xbc0ff4c9	-0.008786389
102	0xbd35850e	-0.044316344
103	0x3e114796	0.14187464
104	0x3e5743be	0.21021935
105	0xbdb6f3b8	-0.089332044
106	0xbe1156da	-0.14193287
107	0xbd68a6e8	-0.0567998
108	0xbc3a681f	-0.0113773635
109	0xbe9e65fa	-0.30937177
110	0xbcbf9be9	-0.023389773
111	0xbe588cd3	-0.2114747
112	0xbe2b568e	-0.16732237
113	0x3d6eb35b	0.058276515
114	0x3b0d4231	0.0021554346
115	0x3e57bd3c	0.21068281
116	0xbe24152c	-0.16023701
117	0x3e5329dc	0.20621437
118	0xbda585ce	-0.08082162
119	0xbe8145de	-0.25248617
120	0x3c111b07	0.0088565415
121	0x3d835c42	0.06414081
122	0x3d082587	0.033238914
123	0xbc98a6b6	-0.018634181
124	0x3b186fc9	0.0023259989
125	0xbc6f6b5e	-0.014613001
126	0xbb862419	-0.0040936586
127	0xbd9132b4	-0.07089749
128	0x3d8b7b58	0.06810635
129	0x3e5ae700	0.21377182
130	0xbe269b80	-0.16270256
131	0x3e7b190f	0.24521278
132	0x3d9f757a	0.07786079
133	0x3e885516	0.26627415
134	0x3d2f2ba5	0.042766232
135	0x3cda3ab8	0.026639327
136	0x3dc9d791	0.09855569
137	0x3ce5b436	0.028040033
138	0xbd397b4e	-0.04528361
139	0xbe207320	-0.15668917
140	0xbe7dd8a8	-0.24789679
141	0x3d5f1099	0.054459188
142	0xbdcbfd1f	-0.099603884
143	0xbd9fb1b0	-0.07797563
144	0x3e351fad	0.17687865
145	0x3e0557c4	0.13021761
146	0xbd8790dc	-0.066194266
147	0x3cbeea69	0.023305135
148	0x3d70df66	0.0588068
149	0x3df342a9	0.11877949
150	0x3e84aafb	0.25911698
151	0x3d037804	0.032096878
152	0xbe8f9467	-0.2804291
153	0x3e500f71	0.2031839
154	0x3d955d3e	0.07293175
155	0x3d0aca92	0.033884592
156	0xbdbb20c1	-0.09137107
157	0x3e9e7c9c	0.30954444
158	0x3e409510	0.18806863
159	0x3df0fbcf	0.11766779
160	0x3c9c3831	0.019069763
161	0xbd860191	-0.065432675
162	0x3e0fc2ea	0.14039198
163	0x3c86e572	0.01646683
164	0xbd542f03	-0.051802646
165	0x3df10a54	0.11769548
166	0xbe6bc3f2	-0.23023966
167	0x3d94f18a	0.072726324
168	0x3c536281	0.012901903
169	0x3d9868e4	0.07441881
170	0x3e5c0a98	0.21488416
171	0x3d85b922	0.06529452
172	0xbe1effc3	-0.15527253
173	0xbddcfc60	-0.10790324
174	0xbcf07298	-0.029351518
175	0x3dcf3b1c	0.10118696
176	0xbd8b1ca2	-0.06792571
177	0x3d01b226	0.031664036
178	0x3e6413a5	0.22273119
179	0xbe4153a1	-0.18879558
180	0xbe90fcde	-0.28317922
181	0xbd1031c3	-0.035203706
182	0x3c3d1db5	0.011542727
183	0xbce0150d	-0.027353788
184	0x3d7022e9	0.058627043
185	0xbcf44d39	-0.029821979
186	0xbd151b69	-0.036403093
187	0x3bc91c8e	0.006137437
188	0x3dd48080	0.10376072
189	0xbe112de7	-0.14177667
190	0xbe6cfb41	-0.23142721
191	0x3cf92fa9	0.030418234
192	0x3d21ee01	0.03953362
193	0x3d63cc60	0.05561483
194	0x3d8cdafd	0.06877706
195	0xbdbb87ec	-0.091567844
196	0xbe321e87	-0.17394458
197	0x3d03b0cb	0.032151025
198	0x3e3ff15f	0.1874442
199	0x3d9c313b	0.076265775
200	0x3e0ecbdc	0.13944954
201	0xbe080a79	-0.13285245
202	0x3d2fe526	0.042943142
203	0x3e0d5918	0.13803518
204	0x3dbaaca0	0.09114957
205	0xbc6daa21	-0.014505894
206	0xbe7c5288	-0.24640858
207	0x3cf1bf67	0.029510213
208	0xbc69ef73	-0.014278281
209	0xba3e8d92	-0.00072690204
210	0xbda6f6f6	-0.08152573
211	0xbe5053ed	-0.20344515
212	0xbd122a46	-0.035684846
213	0xbe9177a6	-0.28411597
214	0x3b8f4402	0.004372121
215	0x3e4bd433	0.19905166
216	0xbaae309c	-0.0013289633
217	0xbe95284e	-0.29132313
218	0x3dae1bd7	0.08501404
219	0x3e10a2fa	0.1412467
220	0x3cd31822	0.025768343
221	0xbdc9ba39	-0.09849972
222	0xbdd64853	-0.104630135
223	0xbe1529cc	-0.14566725
224	0xbe4bdf5a	-0.1990942
225	0xbdcd035f	-0.100104086
226	0x3c1e97e2	0.009679766
227	0xbde7ea58	-0.113239944
228	0x3d5b18ac	0.053490326
229	0xbe41133d	-0.18854995
230	0x3de98b19	0.11403484
231	0xbdf58a23	-0.11989238
232	0xbdd8dd94	-0.10589138
233	0xbe14b80a	-0.1452333
234	0xbdd89383	-0.10575011
235	0x3d208c92	0.03919656
236	0x3d3bb849	0.045830045
237	0xbdac2888	-0.08406168
238	0x3d85619d	0.06512759
239	0x3bded1ee	0.006799928
240	0xbe0262f5	-0.12733062
241	0xbe58e52b	-0.2118117
242	0xbdb609ad	-0.08888564
243	0x3e7e55b8	0.24837387
244	0x3e4ea678	0.2018069
245	0xbd1fbb04	-0.03899671
246	0x3d2763ed	0.04086678
247	0x3c6344d1	0.013871388
248	0xbe115cc3	-0.14195542
249	0xbc4bb6e6	-0.012433743
250	0xbae781b8	-0.001766256
251	0xbe0035b4	-0.12520486
252	0xbdbcbb6e	-0.09215437
253	0x3dde91f3	0.10867681
254	0x3c716307	0.014733083
255	0xbd22d070	-0.039749563

dense_2/MatMul_bias f4 [12]
0	0xbd6473d7	-0.055774536
1	0x3d90b664	0.07066038
2	0xbdd945a5	-0.10608987
3	0x3d5c42e0	0.053774714
4	0x3d81568c	0.06315336
5	0xbccddc40	-0.025129437
6	0x3c4d49d7	0.012529812
7	0x3b861582	0.0040919194
8	0x3d2e0811	0.04248816
9	0xbd4aeff2	-0.049545236
10	0xbe7a251b	-0.24428217
11	0x3c77a6f1	0.0151154855

dense_2/kernel/transpose f4 [12, 128]
0	0x3e14b6c5	0.14522846
1	0x3e6100d4	0.21972972
2	0xbf040820	-0.515749
3	0x3e27ce99	0.16387405
4	0xbd2d5912	-0.042321272
5	0x3e89b25e	0.26893896
6	0x3e4416e6	0.1914936
7	0xbd9428f2	-0.07234372
8	0x3e04802e	0.12939522
9	0xbe67fde6	-0.22655448
10	0xbe73c073	-0.23803882
11	0xbceee769	-0.02916308
12	0x3d8cfe89	0.06884486
13	0x3dd99f05	0.10626034
14	0xbcee58cb	-0.029095074
15	0xbeb774d8	-0.35831332
16	0xbe3abdca	-0.18236461
17	0xbeb33c59	-0.3500698
18	0xbd8da951	-0.0691706
19	0xbdc9c790	-0.09852517
20	0xbda9b565	-0.082865514
21	0x3dad700c	0.08468637
22	0x3de46ffe	0.11154173
23	0xbd510a37	-0.051035132
24	0xbe2381a7	-0.15967427
25	0xbe74c2d7	-0.2390245
26	0xbe12546d	-0.14290018
27	0x3da7b070	0.0818795
28	0x3e18e14d	0.14929695
29	0x3db1c3e4	0.08679941
30	0x3cfe71c1	0.031060101
31	0xbe732fc7	-0.23748694
32	0xbdc7c417	-0.09754198
33	0x3c8c9274	0.017159678
34	0xbe570eac	-0.2100169
35	0x3dba54eb	0.09098228
36	0xbdcbc2d6	-0.099492714
37	0xbda488af	-0.08033883
38	0x3df74884	0.12074378
39	0x3d346f00	0.04405117
40	0xbe8fc52c	-0.28080118
41	0xbe44957f	-0.19197653
42	0x3e53e9ed	0.20694704
43	0xbe98b742	-0.29827315
44	0xbccbbe53	-0.024871027
45	0xbcd4d6eb	-0.025981387
46	0xbec7e5c8	-0.39042497
47	0x3d136cf8	0.035992593
48	0xbe749add	-0.238872
49	0x3c81cb4a	0.015844006
50	0xbc73c3ca	-0.014878223
51	0xbd138687	-0.036016967
52	0x3d3620ae	0.04446476
53	0x3e5cd405	0.21565254
54	0x3e046646	0.12929639
55	0x3e0f8e31	0.14019085
56	0x3e01736d	0.12641688
57	0xbe01fc99	-0.12694015
58	0xbcf59fce	-0.029983427
59	0xbdc332c0	-0.09531164
60	0xbd9fc724	-0.07801655
61	0xbbb643e3	-0.005562292
62	0x3cef54f7	0.02921532
63	0xbd5fa4f0	-0.054600656
64	0x3e571557	0.21004234
65	0xbd1d2032	-0.038360782
66	0x3e42e8bc	0.19034094
67	0xbd514127	-0.051087525
68	0x3e2bf80f	0.16793846
69	0xbedcd39d	-0.43130198
70	0x3e0d7b89	0.13816656
71	0x3dff631d	0.12470076
72	0xbd7d0b13	-0.06177814
73	0xbe1dfceb	-0.15428512
74	0x3e3cc9e0	0.18436384
75	0x3dbe8c27	0.09304076
76	0x3d828aac	0.06374106
77	0xbc92d224	-0.017922468
78	0x3d0799f0	0.03310579
79	0xbefaaa2a	-0.4895795
80	0x3dbc2cfc	0.091882676
81	0xbdd873ad	-0.105689384
82	0x3d40604f	0.046966847
83	0xbdd24a85	-0.1026812
84	0xbe4d7dfb	-0.20067589
85	0xbe5a7354	-0.21333057
86	0x3e272af1	0.16324975
87	0x3dbc4348	0.091925204
88	0xbe136f59	-0.14397945
89	0x3e62a577	0.22133432
90	0xbf0f8588	-0.5606313
91	0xbe82b4ca	-0.25528556
92	0x3e699507	0.22810756
93	0xbebb39d1	-0.36567548
94	0x3ddc932f	0.107702605
95	0xbe3015e8	-0.17195857
96	0x3e570da3	0.21001296
97	0xbe92b3be	-0.28652757
98	0x3da7157e	0.08158396
99	0xbd697d20	-0.057004094
100	0xbe4d38fa	-0.20041266
101	0xbe0e8a8a	-0.13920036
102	0xbe127ccd	-0.1430542
103	0x3db6e203	0.08929827
104	0x3ded4435	0.11585275
105	0xbd9cd386	-0.076575324
106	0x3cac7470	0.021051615
107	0x3ddff7f7	0.109359674
108	0xbd543216	-0.05180558
109	0x3e21bd9a	0.15794984
110	0xbd89796d	-0.06712613
111	0xbd824d8b	-0.063624464
112	0xbdfc0dfd	-0.123073556
113	0x3d99bad9	0.075063415
114	0x3c848c3f	0.016180156
115	0x3e37f07d	0.17962833
116	0xbe7f9314	-0.2495845
117	0x3e188df5	0.14897902
118	0xbea48f99	-0.32140806
119	0x3d71713f	0.05894589
120	0x3dc715ea	0.09720977
121	0x3b9a1b0b	0.004702931
122	0x3cbc0ec7	0.022956265
123	0xbe2f7daf	-0.17137788
124	0x3df1c476	0.1180505
125	0xbe3abb8e	-0.18235609
126	0xbd714ca7	-0.058910992
127	0x3e111bf0	0.14170814
128	0x3e2be8c1	0.16788007
129	0x3e3582e1	0.17725708
130	0xbe4a3fd6	-0.19750914
131	0xbe109092	-0.14117649
132	0x3b74d103	0.0037356026
133	0xbe801f78	-0.2502401
134	0xbe2b7022	-0.16741994
135	0xbe11edf4	-0.14250928
136	0x3d90f10b	0.07077225
137	0x3dbe9e8f	0.093075864
138	0xbeeeb1f6	-0.46620148
139	0xbd27c51a	-0.040959455
140	0xbd19fd2b	-0.037594955
141	0x3de57270	0.11203468
142	0x3e022bf2	0.12712076
143	0xbe3a93c3	-0.18220429
144	0x3df9b27a	0.12192245
145	0xbe27303e	-0.16326997
146	0xbe485449	-0.19563402
147	0x3da092c7	0.078404956
148	0xbc3f347b	-0.011670227
149	0x3e805693	0.2506605
150	0xbdcce5a7	-0.1000474
151	0x3df6467a	0.12025161
152	0x3d3bedb7	0.045881
153	0x3cbc75f6	0.023005467
154	0xbb9fab79	-0.004872736
155	0x3e95ec12	0.2928167
156	0x3e078935	0.13235934
157	0xbdad4e76	-0.08462231
158	0x3e1bf2a2	0.15229276
159	0xbe3cb84b	-0.18429677
160	0x3dcadc24	0.0990527
161	0x3de27c44	0.11058858
162	0xbe04d9df	-0.12973736
163	0x3d984503	0.07435038
164	0x3ba7eeae	0.0051248884
165	0xbe4c790a	-0.19968048
166	0xbef20078	-0.47265983
167	0xbea51490	-0.3224225
168	0x3e847113	0.2586752
169	0xbd4b5d9e	-0.049649827
170	0xbe81e5e0	-0.25370693
171	0x3e4e42c5	0.20142658
172	0x3d6a3a0a	0.057184257
173	0x3dc903ea	0.098152
174	0xbe86cb30	-0.26326895
175	0xbda03554	-0.078226715
176	0x3b3a3d85	0.0028418016
177	0xbe96d2a0	-0.2945757
178	0xbeb44c4f	-0.3521447
179	0xbdd3b379	-0.10336966
180	0x3dae46ec	0.08509621
181	0xbe83d4bd	-0.25748244
182	0x3d1b6875	0.037941415
183	0x3de3232e	0.11090694
184	0x3e03fab6	0.12888607
185	0xbd143f24	-0.036193028
186	0x3e25952d	0.16170187
187	0xbf0479dc	-0.5174844
188	0x3e8c8e3a	0.2745226
189	0x3d379ad8	0.044825405
190	0xbe24e99a	-0.16104737
191	0xbe917aa1	-0.2841387
192	0x3d3b25e5	0.045690436
193	0x3b96530e	0.0045875376
194	0xbf0dd064	-0.55396104
195	0x3e33af72	0.17547396
196	0x3e0e377d	0.13888355
197	0xbe686e57	-0.22698341
198	0x3e5e3a14	0.21701843
199	0x3e3fe1b6	0.18738446
200	0xbe1f17b6	-0.15536389
201	0xbe6cadad	-0.23113127
202	0x3d529624	0.051412717
203	0xbe1a3471	-0.15059067
204	0xbdf9cdf2	-0.12197484
205	0xbe09f6d6	-0.13473067
206	0xbda25108	-0.07925612
207	0x3e5a852b	0.21339862
208	0x3e085303	0.13312916
209	0xbc8dddbc	-0.017317645
210	0x3ced3c00	0.028959274
211	0xbd123189	-0.03569177
212	0xbec43c50	-0.38327265
213	0x3e9c4c8e	0.30527157
214	0xbef527e3	-0.47881994
215	0x3d52b374	0.05144067
216	0xbe8248c5	-0.25446144
217	0xbe427650	-0.18990445
218	0x3e3215d7	0.17391144
219	0xbe889a2f	-0.26680133
220	0xbef02ac0	-0.46907616
221	0x3e5b82b2	0.21436575
222	0xbe035e84	-0.12829024
223	0x3dbe2582	0.09284498
224	0x3dee6309	0.11639983
225	0x3e3f18fd	0.18661876
226	0x3db59579	0.088664
227	0x3e60c884	0.2195149
228	0x3dbba574	0.09162417
229	0x3bba271e	0.0056809327
230	0x3ec10197	0.37696525
231	0x3e6f829a	0.23389664
232	0xbe2f6821	-0.17129566
233	0x3e1202ee	0.1425893
234	0x3e38707e	0.18011662
235	0x3d71005b	0.05883823
236	0x3d298ea4	0.0413958
237	0xbe149b04	-0.14512259
238	0x3da28c1d	0.07936881
239	0x3e29d0db	0.16583578
240	0xbdcf17b8	-0.10111946
241	0x3e25c486	0.16188249
242	0xbd77f3fe	-0.060535423
243	0xbf0ee60a	-0.5581976
244	0xbdb162ed	-0.08661447
245	0xbea54c42	-0.32284743
246	0xbdf62421	-0.1201861
247	0xbed16840	-0.4089985
248	0xbed69067	-0.41907045
249	0xbd592d21	-0.053021554
250	0xbdedc00b	-0.11608895
251	0x3c3bf139	0.011471086
252	0xbe06b71d	-0.1315579
253	0x3e43d1e7	0.1912304
254	0x3cc798ce	0.024364855
255	0xbe60e74d	-0.21963234
