data/wgp_2.tflite (tflite, 414712 bytes, 8 tensors)

conv2d_1/Conv2D_bias f4 [8]
0	0xbb915511	-0.0044351895
1	0x3dce616f	0.10077178
2	0x3db9f94e	0.09080754
3	0x3dc2982f	0.09501683
4	0x3db4c74b	0.088270746
5	0x3d5297d0	0.05141431
6	0x3db0f059	0.08639593
7	0xbc1478fd	-0.009062049

conv2d_1/kernel f4 [1, 3, 3, 8]
0	0xbe27f554	-0.16402179
1	0xbd91a189	-0.071108885
2	0x3ee7fad7	0.45308563
3	0xbe8acfad	-0.2711157
4	0xbd8b828c	-0.06812009
5	0x3e7ef3f7	0.24897753
6	0xbe7804d7	-0.24220596
7	0xbe270b02	-0.16312793
8	0xbeb1c6df	-0.3472204
9	0x3ead0a6c	0.33797014
10	0x3dcdd295	0.10049931
11	0xbd254d39	-0.04035685
12	0xbe4a0446	-0.19728193
13	0xbe7a871f	-0.24465607
14	0xbed6ce3d	-0.41954222
15	0xbeb3d8ef	-0.35126445
16	0xbdc5c4ec	-0.096567005
17	0xbe041b2f	-0.12900995
18	0xbeb8bf1d	-0.36083308
19	0x3e0c3faa	0.13696161
20	0x3e4398d5	0.1910127
21	0xbcb84b86	-0.02249695
22	0xbdcaff02	-0.0991192
23	0xbee2f1ac	-0.44325006
24	0xbe625a22	-0.22104695
25	0xbdd63ca5	-0.10460786
26	0x3d1643f1	0.036685888
27	0x3e4a8db1	0.19780613
28	0xbed0f725	-0.40813556
29	0x3ec6e852	0.3884912
30	0x3ec3b716	0.3822562
31	0x3e07e1c8	0.13269722
32	0xbe9c778e	-0.30559963
33	0xbdc7725e	-0.09738611
34	0xbee973cc	-0.45596159
35	0xbef0b45b	-0.470126
36	0x3d30ac14	0.043132856
37	0xbe3e1e93	-0.1856635
38	0xbe9e2eeb	-0.3089517
39	0xbe45408e	-0.19262907
40	0xbe52d344	-0.20588404
41	0x3e8ca5ed	0.2747034
42	0x3e344c0c	0.17607135
43	0x3eb7e0da	0.35913736
44	0x3eb58224	0.35450852
45	0xbe308d7c	-0.17241472
46	0xbdd632d7	-0.10458916
47	0x3da34451	0.07972015
48	0xbe8210af	-0.25403354
49	0xbe56a646	-0.20961866
50	0xbd9f0205	-0.07764057
51	0x3ce7f1d4	0.028313555
52	0xbe5756d3	-0.21029215
53	0x3ebf8ee4	0.37413704
54	0x3ee7658a	0.45194656
55	0x3cd834ff	0.026392458
56	0xbcd54cf2	-0.026037667
57	0xbefd5640	-0.49479866
58	0xbe08c801	-0.13357545
59	0xbecb01b3	-0.39649734
60	0x3cfd33d0	0.030908495
61	0xbd79cb91	-0.06098515
62	0x3e0ae109	0.13562407
63	0x3f0226f6	0.508407
64	0x3eef12a8	0.4669392
65	0x3eac5613	0.3365942
66	0x3db44055	0.08801333
67	0x3eb33e39	0.3500841
68	0x3e2d62cb	0.16932218
69	0xbeb73b27	-0.35787317
70	0xbe2bb7e8	-0.16769373
71	0x3ec0664d	0.3757805

conv2d_2/Conv2D_bias f4 [16]
0	0xbe14de21	-0.1453786
1	0xbd9dede6	-0.07711391
2	0xbd86dd15	-0.06585137
3	0xbdc0800f	-0.09399425
4	0xbd6ef6a6	-0.05834069
5	0xbd597b6c	-0.05309622
6	0xbd8a3f2c	-0.0675033
7	0xbd673f67	-0.05645695
8	0xbdeef97e	-0.116686806
9	0xbdce08fb	-0.10060307
10	0xbd9d0703	-0.07667353
11	0xbe26f90e	-0.16305944
12	0xbdc3d77f	-0.09562587
13	0xbdac96c8	-0.08427197
14	0xbd38c743	-0.045111906
15	0xbd41815d	-0.04724251

conv2d_2/kernel f4 [16, 3, 3, 8]
0	0xbe943b9d	-0.2895173
1	0x3def12ad	0.11673484
2	0x3ea790eb	0.3272775
3	0xbe09757e	-0.13423726
4	0x3cb19b0e	0.021680381
5	0x3d2a66eb	0.041602056
6	0xbdca3cdc	-0.09874889
7	0xbe8496e4	-0.2589637
8	0xbe9a6e28	-0.30162168
9	0x3df1a8ab	0.11799749
10	0x3e4dfcaf	0.20115922
11	0xbdea4614	-0.114391476
12	0x3cd83b8f	0.026395587
13	0xbe38c3c0	-0.18043423
14	0x3cf277f9	0.029598223
15	0xbea09aac	-0.31368005
16	0xbd8cf57f	-0.06882762
17	0x3e4d439c	0.20045322
18	0x3c081abd	0.008307156
19	0x3df71682	0.1206484
20	0xbca13dbc	-0.019682758
21	0xbe21a9c6	-0.1578742
22	0xbe4cd3ad	-0.20002623
23	0xbd80fd59	-0.06298322
24	0xbe495aab	-0.19663493
25	0xbe36e0a5	-0.17859133
26	0xbd6bcbd6	-0.05756744
27	0x3da67462	0.08127667
28	0xbcea158a	-0.028574724
29	0x3e7d5f31	0.24743344
30	0x3ec54cfd	0.385353
31	0x3e786ade	0.24259517
32	0xbe5cbde3	-0.21556811
33	0xbd6d2e5e	-0.057905547
34	0x3dbe1b2f	0.092825286
35	0x3e1f4c58	0.15556467
36	0x3d7cbd1a	0.06170378
37	0x3da3afe2	0.07992531
38	0x3e6a9f32	0.2291229
39	0xbe8a71e5	-0.2704002
40	0xbe2e6ad4	-0.17032939
41	0x3d19afb6	0.037521087
42	0x3da74c05	0.081687964
43	0xbdeb93c1	-0.11502791
44	0x3e4a8ee1	0.19781066
45	0x3e09dcac	0.13463086
46	0x3e2485ef	0.16066717
47	0xbe97e402	-0.29666144
48	0xbd5867d4	-0.052833393
49	0xbe2f430f	-0.17115425
50	0x3b8ee502	0.004360796
51	0xbe53d050	-0.20684934
52	0xbe45c7f2	-0.19314554
53	0x3cee0f53	0.029060042
54	0x3c894ea6	0.016761135
55	0x3e1af472	0.15132311
56	0xbd00ba79	-0.031427834
57	0xbe08b6a6	-0.13350925
58	0x3e12f6ff	0.14352034
59	0xbe4255db	-0.18978064
60	0xbe8361aa	-0.2566045
61	0x3e58f1c9	0.21185984
62	0x3ec04017	0.37548897
63	0xbd040c1a	-0.032238103
64	0xbe25bb15	-0.16184647
65	0x3cd13afd	0.025540823
66	0xbe47feaa	-0.1953074
67	0xbdaddc76	-0.08489315
68	0xbb7524a1	-0.0037405866
69	0x3de0c00f	0.10974132
70	0x3e4e20c2	0.20129684
71	0x3d479784	0.04872848
72	0xbe9dbbcb	-0.30807337
73	0x3e81a835	0.25323644
74	0x3e818586	0.25297183
75	0x3ce8ad45	0.028402934
76	0x3daaeae1	0.08345581
77	0x3cda724b	0.026665827
78	0xbbcb9e86	-0.006213966
79	0xbdaf4ef0	-0.08559978
80	0xbdbfab56	-0.093588516
81	0x3be2a481	0.006916583
82	0x3e12bdaa	0.14330164
83	0x3e3a8f41	0.1821871
84	0x3de6825a	0.11255331
85	0xbe9a4fd3	-0.30139026
86	0xbe93c9a4	-0.28864777
87	0x3dad8159	0.08471937
88	0x3e527e73	0.20556049
89	0xbda6494e	-0.081194505
90	0x3da40e56	0.08010547
91	0xbe7b156c	-0.2451989
92	0xbc55c660	-0.013047785
93	0xbe4e5ee7	-0.2015339
94	0xbe1f46f0	-0.15554404
95	0xbe227083	-0.15863232
96	0xbeb40343	-0.35158738
97	0xbc278108	-0.010223635
98	0x3dca2750	0.098707795
99	0x3d3b5d84	0.04574348
100	0x3e05667d	0.13027377
101	0x3eac3543	0.33634385
102	0x3e8eb4bd	0.27872267
103	0x3e2cf8d5	0.16891797
104	0xbe739315	-0.23786576
105	0x3dd3443b	0.10315748
106	0xbdb0e802	-0.08638002
107	0x3daf92cc	0.08572921
108	0x3deeec8c	0.116662115
109	0x3dbb8f55	0.09158198
110	0x3e5f93ee	0.21833774
111	0xbe1a7244	-0.15082651
112	0xbdc14b2c	-0.09438166
113	0x3e30e7eb	0.1727597
114	0x3d738660	0.05945432
115	0xbd9b2f72	-0.07577409
116	0x3d2feb25	0.04294886
117	0xbe01e96a	-0.12686697
118	0xbcf2b65e	-0.029627975
119	0xbe8f4fc0	-0.27990532
120	0xbebc50d3	-0.36780414
121	0xbe540fcd	-0.20709153
122	0xbe75afc0	-0.23992825
123	0xbe2e9e0b	-0.17052476
124	0xbe93304a	-0.2874778
125	0x3d40121f	0.04689228
126	0x3e0c83f7	0.13722216
127	0x3ee376fc	0.44426715
128	0xbde319fd	-0.11088941
129	0xbe8f3494	-0.279698
130	0xbe4e92e0	-0.20173216
131	0xbd8e4b67	-0.069479756
132	0xbdbdbc7d	-0.09264467
133	0x3e35f625	0.17769678
134	0x3ee1cbb0	0.44100714
135	0x3eb4ac56	0.35287732
136	0xbdad0350	-0.084478974
137	0xbe46139b	-0.19343416
138	0xbd9e2b9b	-0.07723161
139	0x3d4c4b42	0.04987646
140	0xbda6f700	-0.0815258
141	0xbd025b6b	-0.031825464
142	0x3ec99618	0.39372325
143	0x3e302512	0.17201641
144	0xbeba5813	-0.3639532
145	0x3ebd3a4c	0.3695854
146	0xbded9fd8	-0.116027534
147	0x3e3d6f6e	0.18499538
148	0xbcb263f1	-0.021776171
149	0xbcd9343b	-0.026514163
150	0xbe1ad945	-0.15121944
151	0xbda0f541	-0.078592785
152	0xbdd9047b	-0.10596558
153	0x3e41c8f1	0.1892431
154	0xbe14667e	-0.14492223
155	0xbdf5bd8f	-0.11999046
156	0xbbd5cb43	-0.006524475
157	0xbe057d93	-0.13036184
158	0xbe961252	-0.29310852
159	0x3da76749	0.08173997
160	0xbe895366	-0.2682144
161	0xbe1a1224	-0.15045983
162	0xbd804f39	-0.062651105
163	0xbe88ac0b	-0.26693758
164	0xbe2181a2	-0.15772107
165	0xbe12a98e	-0.14322492
166	0x3d4c1cc2	0.049832113
167	0x3e705a8f	0.23472045
168	0xbea64891	-0.3247724
169	0x3e0f5f6a	0.14001241
170	0xbde5c082	-0.112183586
171	0x3d864384	0.06555846
172	0x3d9aeba1	0.07564474
173	0x3d4f8ce2	0.050671466
174	0x3cd54d62	0.026037876
175	0xbe7850f1	-0.24249627
176	0xbe96399b	-0.29340824
177	0x3ea821f0	0.32838392
178	0xbdabbe0b	-0.08385857
179	0x3e9fdcf0	0.3122325
180	0x3db2758e	0.08713828
181	0xbe96f058	-0.29480243
182	0xbe23c4ca	-0.15993038
183	0xbe076ce6	-0.13225135
184	0xbe0efa45	-0.13962658
185	0xbddaf587	-0.10691362
186	0xbe2e8ffd	-0.17047115
187	0xbe86d8a4	-0.2633716
188	0x3c6fc6de	0.014634816
189	0xbd9d2232	-0.07672538
190	0xbe1ceb37	-0.15324102
191	0xbe3c8462	-0.18409875
192	0xbeb9cfab	-0.3629125
193	0xbcab03a9	-0.020875769
194	0x3dc7ee4f	0.09762251
195	0xbd180827	-0.03711715
196	0x3d050dfe	0.032484047
197	0x3e81f32d	0.2538084
198	0x3db71cd7	0.08941048
199	0xbe079948	-0.13242066
200	0x3d098189	0.0335708
201	0x3e513115	0.2042888
202	0xbd04eda1	-0.032453183
203	0x3ef0390e	0.4691853
204	0x3e9e1ca7	0.30881235
205	0xbbfb5424	-0.0076699425
206	0x3e089821	0.13339283
207	0xbe081e7b	-0.13292877
208	0xbe5ed026	-0.2175909
209	0x3c83a311	0.016068967
210	0xbdbb55b6	-0.091472074
211	0x3bc6cc85	0.006066861
212	0x3e9c3b3d	0.30513945
213	0xbe4ccb8a	-0.19999519
214	0xbe4f8caa	-0.20268503
215	0x3c4fea1e	0.012690095
216	0x3dbbe5e8	0.091747105
217	0x3daa0caf	0.083032005
218	0x3e4d44b4	0.2004574
219	0xbe0c32dd	-0.13691278
220	0xbe68ca3e	-0.227334
221	0xbdf8dc5c	-0.12151405
222	0xbe97f42e	-0.29678482
223	0x3c0d9712	0.008641975
224	0x3df35a1c	0.118824214
225	0x3d1e2556	0.038609825
226	0x3dd3e539	0.10346455
227	0x3d292534	0.041295245
228	0xbe3b90a5	-0.18316896
229	0xbe0b42bc	-0.13599676
230	0x3d15ad7a	0.036542393
231	0x3e20ac85	0.15690811
232	0x3e6875da	0.22701207
233	0xbdbe4c27	-0.09291869
234	0xbdc75a57	-0.09734028
235	0x3e219682	0.1578007
236	0x3df335c9	0.11875493
237	0xbd011a80	-0.031519413
238	0x3e769dde	0.24083659
239	0x3e8551f0	0.26039076
240	0xbd11139f	-0.035419103
241	0x3e7526c8	0.23940575
242	0x3decd97d	0.1156492
243	0x3e430c61	0.19047691
244	0x3dc5f92e	0.09666668
245	0x3ca7ee9c	0.02049952
246	0xbe10a43c	-0.1412515
247	0x3e3d3fda	0.18481389
248	0x3e417e9f	0.18895958
249	0x3d65ab9f	0.056071874
250	0xbe3f99a2	-0.1871095
251	0xbe0ec0e2	-0.13940766
252	0xbddd487f	-0.10804843
253	0x3bb97a69	0.0056603444
254	0x3dd16ba5	0.1022561
255	0xbd0534dd	-0.032521117

dense_1/MatMul_bias f4 [128]
0	0x3d00d83f	0.03145623
1	0xbccba039	-0.024856674
2	0xbb2abb78	-0.0026051681
3	0xbc14b147	-0.009075469
4	0xbc33a429	-0.010964432
5	0x3b2cd30b	0.0026370909
6	0xbc17ce09	-0.009265431
7	0xbbd02c50	-0.0063529387
8	0xbad516ff	-0.0016257464
9	0x3bab6def	0.005231611
10	0xbc1082f6	-0.008820286
11	0xbc005ce3	-0.007834646
12	0xbc1998ca	-0.009374807
13	0x3d2e0d43	0.042493116
14	0xbc415801	-0.011800767
15	0x3c3d4b34	0.011553574
16	0xbccdf6fe	-0.02514219
17	0x3d33e583	0.04392005
18	0x3d0c92e1	0.034319762
19	0x3ca68b8f	0.020330219
20	0x3c5f928e	0.013645781
21	0xbc6219f5	-0.013800134
22	0x3c7545e3	0.014970276
23	0x3d546209	0.051851306
24	0xbcd273e3	-0.025690025
25	0x3c9a6bd6	0.018850248
26	0x3c206ab3	0.009791064
27	0xbc2c4fc9	-0.010517069
28	0x3c90c8ce	0.017673876
29	0x3d3954b1	0.045246784
30	0x3c829614	0.015940703
31	0x3c8cf147	0.017204894
32	0xbc626d91	-0.013820068
33	0xbc60fc8e	-0.013732089
34	0x3c5b223e	0.013374863
35	0xbc0b77a7	-0.008512414
36	0xbbc48125	-0.0059968405
37	0xbc36e517	-0.011163018
38	0xbc85f142	-0.016350392
39	0xbc7952d8	-0.015217505
40	0xbbeb43f5	-0.007179732
41	0x3a9a027a	0.0011750006
42	0xbbb62287	-0.005558315
43	0xbbb39ac6	-0.005481097
44	0xbcc80f3e	-0.02442133
45	0x3cb23ea9	0.021758394
46	0xbc9729e4	-0.018452592
47	0x3cbb0d44	0.022833474
48	0xbc9cfb23	-0.01916272
49	0xbaa3f27c	-0.0012508179
50	0xbc02e369	-0.007988789
51	0xbc15bf57	-0.009139857
52	0xbc359ed4	-0.011085231
53	0xbcdbcbbf	-0.026830552
54	0xba9edff1	-0.0012121183
55	0xbcdfe98b	-0.027333042
56	0xbbb10fde	-0.005403503
57	0x3bac94c1	0.0052667563
58	0x3c1ba52d	0.00949983
59	0xbbf52615	-0.0074813464
60	0xbbda9f79	-0.0066718427
61	0xbcd03ba9	-0.025419073
62	0x3cc716fb	0.02430295
63	0x3ccdd9f9	0.025128352
64	0x3c989c5f	0.018629251
65	0x3b48d2a3	0.0030643127
66	0x3cabc048	0.02096571
67	0xbcf2ef22	-0.029655043
68	0x3a8be02d	0.0010671668
69	0xbc06cd31	-0.008227632
70	0xbc072a6f	-0.008249863
71	0xbd0e83d8	-0.034793705
72	0xbc5ba995	-0.013407131
73	0xbc8c3cac	-0.017118774
74	0x39100db2	0.00013738012
75	0xbc119cd1	-0.008887486
76	0x3c9a85cd	0.01886263
77	0xbc898042	-0.01678479
78	0xbd36bd7c	-0.0446143
79	0x3c975ec2	0.018477801
80	0xbc31044f	-0.01080425
81	0x3c39689f	0.0113164475
82	0x3c19aa15	0.00937893
83	0xbc10c478	-0.008835904
84	0x3c93b192	0.018029008
85	0xbcee64c1	-0.029100778
86	0xbc9cf5c5	-0.01916016
87	0xbca50c4d	-0.020147467
88	0x3b2a7730	0.0026010983
89	0x3c947339	0.018121349
90	0x3c2619ea	0.010138014
91	0xbc2f7002	-0.010707857
92	0xbbf5b0ee	-0.0074978983
93	0xbc9cf072	-0.019157622
94	0xbb65697c	-0.00350055
95	0xbbc92c11	-0.0061392863
96	0x3c77d0ea	0.015125493
97	0xbc1a8c5f	-0.009432881
98	0xbc0da5a0	-0.008645445
99	0xbc65d42d	-0.014027637
100	0xbc0c0386	-0.008545762
101	0xbbc96f7c	-0.006147323
102	0xbc2c1715	-0.01050355
103	0xbcca4bc7	-0.024694337
104	0xbc1314ea	-0.008977154
105	0xbd380b1d	-0.044932473
106	0xbd1527b3	-0.036414813
107	0x3d035ef1	0.032072965
108	0xba2e220f	-0.00066426484
109	0xbc5ea056	-0.013588032
110	0xbcb9a165	-0.022659967
111	0xbbc212fa	-0.0059226723
112	0xbd1562bd	-0.036471117
113	0xbbe2ac48	-0.00691751
114	0xbc31cfa2	-0.010852726
115	0xbad35bfb	-0.0016125435
116	0x3d03f456	0.03221544
117	0x3c6d9e58	0.014503084
118	0x3ca15ccb	0.019697567
119	0x3c6c5b74	0.014426101
120	0x3c2f158c	0.0106862895
121	0x3c3e4326	0.011612689
122	0xbce74bb3	-0.028234338
123	0x3c3d7bdb	0.011565174
124	0x3c6d3a7b	0.014479275
125	0x3bd78a71	0.006577783
126	0x3d049504	0.032368675
127	0xba1dc756	-0.0006018778

dense_1/kernel/transpose f4 [128, 784]
0	0xbcf8af5e	-0.03035706
1	0xbd9ca363	-0.07648351
2	0x3d96a615	0.073558964
3	0x3caf0c49	0.021368163
4	0xbd0f5551	-0.034993473
5	0xbe158ef7	-0.14605318
6	0xbb34eed7	-0.002760818
7	0xbd889b4d	-0.06670246
8	0x3aa03430	0.0012222584
9	0xbc87c9bf	-0.016575692
10	0x3df2af61	0.11849857
11	0xbd87d8d5	-0.06633154
12	0x3a79433b	0.00095086143
13	0xbbc43b34	-0.005988503
14	0x3dc67fa1	0.09692312
15	0x3d700951	0.058602635
16	0x3d210c5b	0.039318424
17	0xbd217690	-0.03941971
18	0x3d39eeb6	0.045393668
19	0x3d5d1481	0.053974632
20	0xbbd5878b	-0.006516402
21	0xbe8ff2c4	-0.28114903
22	0x3d33b589	0.043874297
23	0xbd03e9ab	-0.032205265
24	0xbe2754b5	-0.16340907
25	0xbc27c4b9	-0.010239773
26	0x3d233712	0.03984744
27	0xbdd0b8ed	-0.10191522
28	0xbe47ff16	-0.19530901
29	0xbe150523	-0.14552741
30	0x3d72139b	0.05910073
31	0x3d52a612	0.05142791
32	0x3d34752a	0.04405705
33	0xbcb641dd	-0.022248203
34	0xbdb1476a	-0.08656199
35	0x3ddbc2a3	0.107304834
36	0xbd834d4d	-0.06411228
37	0x3d334da5	0.04377522
38	0xbc8d5ef5	-0.017257193
39	0xbd0fdaf9	-0.035120938
40	0xbe32f90e	-0.1747782
41	0xbd27d13a	-0.04097102
42	0x3c300844	0.010744158
43	0xbdc0b04b	-0.09408625
44	0xbd6d51a7	-0.057939198
45	0xbe03f66d	-0.12886973
46	0x3ab6871b	0.0013925763
47	0xbd0641b1	-0.032777492
48	0x3d3cf790	0.04613453
49	0xbdadb994	-0.08482662
50	0x3e6ea2da	0.2330431
51	0x3d1b6f76	0.037948094
52	0xbca97dbe	-0.020689841
53	0xbb1427cb	-0.0022606726
54	0xbe0b397d	-0.13596149
55	0x3e258134	0.16162568
56	0xbd9476f4	-0.07249251
57	0xbe026a6e	-0.12735912
58	0x3e1320a6	0.14367923
59	0xbd1dab39	-0.03849337
60	0xbd145270	-0.03621143
61	0x3d01c19b	0.031678777
62	0x3d866be4	0.06563547
63	0xbd87738b	-0.06613835
64	0x3c79186d	0.0152035775
65	0xbe03e345	-0.12879665
66	0x3d6340f6	0.055481873
67	0x3cc18a2e	0.02362546
68	0x3dc5b383	0.0965338
69	0x3cac6020	0.02104193
70	0x3d87a648	0.066235125
71	0x3d80b4e2	0.06284501
72	0xbc9f7afd	-0.019467825
73	0x3c4ab935	0.012373258
74	0x3ddcaacc	0.107747644
75	0x3c820278	0.015870318
76	0xbceb2bda	-0.028707433
77	0xbd0cbd97	-0.034360494
78	0x3dac1399	0.084021755
79	0x3d32dd87	0.043668296
80	0xbcd4f72e	-0.02599677
81	0xbdf501de	-0.11963247
82	0xbda90e75	-0.082547106
83	0x3de0797c	0.10960671
84	0xbdb026d4	-0.08601156
85	0x3d5d30d1	0.054001633
86	0x3d9002bf	0.07031774
87	0x3b8ac5be	0.0042349985
88	0xbc7ed041	-0.015552581
89	0x3da14682	0.078747764
90	0xbddd6a75	-0.10811321
91	0x3d9c1810	0.07621777
92	0xbd92c7a4	-0.07166985
93	0xbac75e2f	-0.0015210564
94	0xbcd869cd	-0.026417637
95	0x3d5a5f19	0.05331335
96	0x3d6054aa	0.054768242
97	0xba82a739	-0.0009968049
98	0xbd8b6136	-0.06805651
99	0xbce876ca	-0.028376956
100	0x3e039ea1	0.12853481
101	0xbcbadd42	-0.022810582
102	0x3d6b468a	0.05744032
103	0xbdca8773	-0.09889116
104	0x3d8ff087	0.07028299
105	0xbe2bf722	-0.16793492
106	0xbe08e408	-0.13368237
107	0x3d466bc1	0.048442606
108	0x3d1cea1a	0.038309194
109	0x3ce20569	0.02759047
110	0xbd03a882	-0.032143123
111	0x3c8a9351	0.016915949
112	0xbd5ab743	-0.05339743
113	0x3d4e314d	0.050339986
114	0x3d70ec8a	0.05881933
115	0x3d9f4d38	0.077784
116	0xbd8d73b9	-0.06906838
117	0x3c81d8fd	0.015850538
118	0x3dddcf53	0.108305596
119	0xbbdfd319	-0.0068305847
120	0x39f315b5	0.00046364745
121	0xbd8b469a	-0.068005756
122	0xbd0628ff	-0.03275394
123	0xbda904ae	-0.08252846
124	0xbd5dc566	-0.054143332
125	0x3c3fd0ef	0.0117075285
126	0xbc5bddea	-0.013419608
127	0xbd815846	-0.06315665
128	0xbaecfa78	-0.0018080017
129	0x3dcc361b	0.09971257
130	0xbbcd05b6	-0.0062567843
131	0xbd667d9a	-0.056272127
132	0xbd39e2eb	-0.04538242
133	0x3c2f37f6	0.0106944945
134	0xbe265263	-0.16242366
135	0xbda0839d	-0.07837603
136	0x3b811b20	0.003940001
137	0xbdb49fd4	-0.08819547
138	0xbe10a315	-0.14124711
139	0x3d48e341	0.04904485
140	0x3b478534	0.0030444385
141	0xbd581ba5	-0.05276074
142	0x3e1078df	0.14108609
143	0x3db1ab44	0.086752445
144	0xbc36c05d	-0.011154261
145	0x3dbc3341	0.091894634
146	0xbe18058a	-0.14845863
147	0xbdfa20ea	-0.12213309
148	0xbe1e8ace	-0.15482637
149	0x3bc9bae9	0.0061563146
150	0xbe99fa30	-0.3007369
151	0xbaabb836	-0.0013101164
152	0xbdc01bbf	-0.09380292
153	0xbdb28715	-0.08717171
154	0xbe46580f	-0.19369529
155	0xbcd31330	-0.025765985
156	0xbcd31c6a	-0.025770385
157	0xbe2f7737	-0.1713532
158	0xbd8b8e79	-0.06814284
159	0xbcd278c6	-0.025692355
160	0x3cc9a1f2	0.024613354
161	0xbcb2cc67	-0.021825982
162	0x3e80a8ad	0.2512869
163	0x3c2115a3	0.009831819
164	0x3d8646fa	0.065565065
165	0xbe053c8a	-0.13011375
166	0xbe18e1b4	-0.14929849
167	0x3cdd8f44	0.027045853
168	0x3bd17442	0.006392033
169	0xbd6a0897	-0.0571371
170	0x3d8b5b29	0.06804497
171	0xbd8ef9a7	-0.06981211
172	0xbc92469e	-0.017855939
173	0xbdb02cb3	-0.08602276
174	0xbe06cf3e	-0.13164994
175	0x3c394095	0.011306901
176	0xbd9d1127	-0.07669287
177	0xbce70fc4	-0.02820576
178	0x3e56e5c8	0.20986092
179	0xbdc1389a	-0.09434624
180	0x3d287d58	0.041135162
181	0xbd2905f0	-0.041265428
182	0x3c3d3fe8	0.011550881
183	0xbd8b130e	-0.06790744
184	0xbdc9350f	-0.09824573
185	0xbd95d0af	-0.07315194
186	0x3d487b10	0.048945487
187	0xbd6142de	-0.05499541
188	0xbd557e8c	-0.052122638
189	0xbc87d4e6	-0.01658101
190	0x3d806a95	0.06270329
191	0xbd4adae2	-0.04952515
192	0xbe26529b	-0.16242449
193	0xbd9c6663	-0.07636716
194	0x3d48e93c	0.049050555
195	0x3d4ee75d	0.050513614
196	0x3e15fec9	0.14647974
197	0xbd4404c6	-0.047856115
198	0xbd8c1c7c	-0.068413705
199	0xbd425ac5	-0.047449846
200	0x3da5c2cf	0.080937974
201	0xbc40a598	-0.011758231
202	0xbcb112ab	-0.021615347
203	0xbe0e893d	-0.1391954
204	0x3ce4950e	0.027903106
205	0xbd925b4f	-0.07146322
206	0x3da45dcc	0.08025703
207	0x3cd8f0cc	0.026482008
208	0xbd6e2ae4	-0.058146372
209	0x3d98c50c	0.07459459
210	0x3dd95208	0.10611349
211	0x3da95460	0.082680464
212	0x3bc7e7b0	0.0061006173
213	0xbdfd3329	-0.12363274
214	0x3d9494b5	0.07254926
215	0xbd9deadc	-0.077108115
216	0x3cc51c2d	0.024061287
217	0xbb794623	-0.003803619
218	0x3d95ae81	0.073086746
219	0xbd58122b	-0.0527517
220	0x3db10fb8	0.08645576
221	0xbd1af83b	-0.037834387
222	0xbaf4526f	-0.001864029
223	0x3dbecaa6	0.09315996
224	0x3c825a7c	0.015912287
225	0x3d98bbad	0.07457671
226	0x3d225b46	0.039637826
227	0xbd4fab13	-0.05070026
228	0xbd814504	-0.06311992
229	0x3d87556f	0.06608092
230	0x3c9248f3	0.01785705
231	0x3db8cd91	0.09023584
232	0x3dd9d28d	0.106358625
233	0x3decec9c	0.11568567
234	0x3ddc27d7	0.10749786
235	0x3cf5cbea	0.03000446
236	0x3d87aae4	0.06624392
237	0x3c6362d1	0.01387854
238	0x3daf5c8f	0.08562576
239	0x3de28515	0.1106054
240	0xbd468294	-0.048464373
241	0x3dedfbc4	0.11620286
242	0x3d9f0b4a	0.07765825
243	0xbdd9342a	-0.10605653
244	0xba4a69d3	-0.00077214575
245	0xbc2b49d0	-0.01045461
246	0xbbb31a12	-0.0054657543
247	0xbc8aa477	-0.016924126
248	0xbe035b24	-0.12827736
249	0xbde2fa31	-0.110828765
250	0x3b912d91	0.0044304808
251	0xbcc60589	-0.024172561
252	0xbd55220c	-0.052034423
253	0xbddaf4e5	-0.10691241
254	0x3dc264f8	0.094919145
255	0x3dbdff5b	0.09277221

dense_2/MatMul_bias f4 [11]
0	0xbd009aac	-0.031397507
1	0x3ce4d406	0.027933132
2	0xbd18b849	-0.037285123
3	0x3bd279c8	0.006423209
4	0x3cc4f725	0.024043629
5	0x3b2baaf9	0.0026194437
6	0xbda01365	-0.07816199
7	0x3c877c86	0.01653887
8	0x3c53932b	0.012913506
9	0xbc8dd6a8	-0.01731427
10	0x3d199897	0.037499037

dense_2/kernel/transpose f4 [11, 128]
0	0xbd947a29	-0.07249863
1	0xbe085210	-0.13312554
2	0xbe4f339c	-0.20234531
3	0xbdbac8df	-0.09120344
4	0x3d27295c	0.040810928
5	0x3db3ae2a	0.087734535
6	0xbbb3c6f1	-0.005486362
7	0xbd2d3609	-0.04228786
8	0x3d716a42	0.058939226
9	0xbe31d195	-0.17365105
10	0xbdf259a0	-0.11833501
11	0xbe4f45d8	-0.20241487
12	0xbdb9abfd	-0.09066007
13	0xbe0cb7dc	-0.13742012
14	0x3dbd406b	0.092408024
15	0xbe6ce906	-0.23135766
16	0x3db4ecff	0.08834266
17	0x3e2701fd	0.16309352
18	0xbd477ceb	-0.048703115
19	0xbe23c690	-0.15993714
20	0xbdcf417b	-0.10119911
21	0x3ca91c3e	0.02064335
22	0x3e0ebfbe	0.13940331
23	0xbe7c3e19	-0.24633063
24	0x3d26f0d9	0.040757034
25	0x3e79a447	0.24379073
26	0x3e5d7059	0.21624888
27	0xbd302758	-0.04300627
28	0x3cd55b04	0.026044376
29	0xbe547e36	-0.2075127
30	0xbe855cdd	-0.26047412
31	0x3d156179	0.03646991
32	0xbea54c44	-0.3228475
33	0xbc87a7fd	-0.016559595
34	0x3bfe3c3f	0.0077586467
35	0xbc3feed3	-0.011714655
36	0x3e055be1	0.1302333
37	0x3e4c7960	0.19968176
38	0xbe8adcef	-0.27121684
39	0x3d34eb63	0.044169795
40	0xbb8270aa	-0.0039807158
41	0xbd54170a	-0.051779784
42	0x3e170c63	0.14750819
43	0x3d980ecf	0.074246995
44	0xbdf9900e	-0.121856794
45	0xbd915931	-0.0709709
46	0x3dc4877c	0.09596154
47	0x3e77381b	0.24142496
48	0xbcfdc388	-0.030977026
49	0xbea95e42	-0.33079726
50	0xbe131154	-0.14362079
51	0xbdd467f6	-0.103713915
52	0xbe374c0f	-0.17900108
53	0xbe3e6710	-0.18594003
54	0x3d4de6a3	0.05026878
55	0x3c7271f6	0.014797678
56	0x3e0c9c6f	0.1373155
57	0xbe8444ef	-0.25833842
58	0xbddeaed4	-0.108731896
59	0x3dc52545	0.09626249
60	0x3e0d5f45	0.13805874
61	0x3e34766a	0.17623296
62	0xbd0c48c4	-0.034249082
63	0x3d5e61eb	0.0542926
64	0x3e2f4c0a	0.1711885
65	0x3e302673	0.17202167
66	0x3e56f75d	0.20992799
67	0x3e5888f7	0.21145998
68	0x3cda0e43	0.026618129
69	0xbeaa4a03	-0.3325959
70	0xbd8ef11a	-0.0697958
71	0xbd72cb04	-0.059275642
72	0xbe71b977	-0.23605905
73	0x3e2c71f5	0.16840346
74	0xbce5a585	-0.028033027
75	0xbd46b6cd	-0.048514176
76	0xbca53a03	-0.020169264
77	0xbe92938c	-0.28628194
78	0x3dbabbb1	0.091178305
79	0x3e913976	0.28364152
80	0xbdc5df18	-0.096616924
81	0xbdf64765	-0.12025336
82	0x3e49dc76	0.19713005
83	0xbda98ef6	-0.08279221
84	0xbecd12e2	-0.4005347
85	0x3df31946	0.11870055
86	0xbd957605	-0.07297901
87	0xbb266f61	-0.0025395977
88	0xbe28b2a0	-0.1647439
89	0x3e523b2b	0.20530383
90	0xbe1a4006	-0.15063486
91	0x3d82242a	0.06354554
92	0xbe4a9e41	-0.19786932
93	0x3e1ff726	0.15621623
94	0xbe2bafa0	-0.16766214
95	0x3e459934	0.19296724
96	0xbcc9a74d	-0.024615908
97	0xbd549d63	-0.05190791
98	0xbc8a411c	-0.01687675
99	0x3dbd9132	0.092562094
100	0xbd3b7f2e	-0.045775585
101	0xbcb18c37	-0.021673305
102	0xbd98f428	-0.07468444
103	0xbe3de26b	-0.18543403
104	0xbe0a00ba	-0.1347684
105	0xbe400e4e	-0.18755457
106	0x3df04b78	0.117331445
107	0xbc0e0f01	-0.008670569
108	0x3e48f105	0.19623192
109	0x3e757870	0.23971725
110	0xbd962241	-0.07330752
111	0x3d059bb0	0.03261918
112	0xbe074d10	-0.13212991
113	0x3e67fc68	0.22654879
114	0xbdfdad7b	-0.123866044
115	0x3e31e3d0	0.1737206
116	0x3eb65262	0.35609728
117	0xbceeb5b0	-0.02913937
118	0xbe9033e2	-0.28164583
119	0xbe48055e	-0.19533297
120	0x3e01a06c	0.12658852
121	0x3df7d17a	0.12100501
122	0x3e6131a1	0.21991588
123	0xbd99f6a8	-0.07517749
124	0x3d970391	0.07373727
125	0x3dfd32c3	0.12363198
126	0xbda99b09	-0.08281524
127	0xbe88afa5	-0.26696506
128	0x3e9efbc1	0.31051448
129	0x3e8399e6	0.25703353
130	0x3dd4db46	0.103933856
131	0xbd57249b	-0.052525144
132	0x3e283c3f	0.16429232
133	0x3d586151	0.052827183
134	0x3e3a8868	0.18216097
135	0x3e209709	0.15682615
136	0xbe55f4f0	-0.20894217
137	0xbe935314	-0.2877432
138	0x3ce39765	0.027782151
139	0xbd0beecb	-0.034163278
140	0xbe862ff1	-0.2620845
141	0x3e5d746a	0.2162644
142	0xbe242645	-0.16030224
143	0xbdad05ce	-0.08448373
144	0xbd3c2d8e	-0.04594188
145	0xbec59cfe	-0.38596338
146	0x3e318201	0.17334749
147	0x3c2d6c33	0.010584879
148	0x3e6ee5a4	0.23329788
149	0xbebab734	-0.36467898
150	0x3e845433	0.2584549
151	0x3e3fc919	0.18729056
152	0xbe34f7c9	-0.17672648
153	0xbe9fa84b	-0.31183085
154	0x3e2a68b0	0.16641498
155	0xbdc1b556	-0.09458415
156	0xbd68b4e4	-0.056813136
157	0x3e6c932d	0.23103018
158	0x3e6e8b70	0.23295379
159	0x3dec447b	0.11536499
160	0xbe6cc263	-0.23121028
161	0x3d69c53f	0.057072874
162	0x3e5855ce	0.21126482
163	0xbd708075	-0.058716256
164	0x3dd407b3	0.10353031
165	0x3da40c98	0.080102146
166	0x3c9417c5	0.01807774
167	0xbde66ded	-0.112514354
168	0xbe9463b5	-0.2898232
169	0x3da20dcd	0.079127885
170	0x3bd49469	0.0064874184
171	0x3dd6da01	0.104908
172	0xbecb162f	-0.39665362
173	0x3db2c17b	0.0872831
174	0xbd27a556	-0.04092916
175	0xbeb66c1b	-0.35629353
176	0xbd3faf58	-0.04679808
177	0x3d756ec0	0.059920073
178	0xbd873534	-0.066019446
179	0xbc1c71fd	-0.009548661
180	0xbdc4f854	-0.09617677
181	0x3d9863d6	0.07440917
182	0x3e1f5d86	0.1556302
183	0xbda06a9a	-0.07832833
184	0xbddaef28	-0.10690147
185	0x3e06a298	0.13147962
186	0x3e159d5d	0.1461081
187	0xbebdcc53	-0.3706995
188	0xbd53fd06	-0.051754974
189	0xbec6d5d1	-0.38835004
190	0xbd40d900	-0.047081947
191	0x3ea800e1	0.3281317
192	0x3c6067e0	0.013696641
193	0xbc8f5cb5	-0.01750026
194	0x3e4e3a09	0.20139326
195	0x3d461090	0.04835564
196	0x3e12b483	0.14326672
197	0x3e4f4caa	0.20244089
198	0x3d38f37e	0.045154087
199	0xbe909316	-0.28237218
200	0xbd4a8e38	-0.049452037
201	0xbe607296	-0.21918711
202	0x3e0bb0e1	0.13641693
203	0x3de088fc	0.10963628
204	0xbea5859b	-0.32328495
205	0xbe2f743c	-0.17134184
206	0xbec57411	-0.38565114
207	0x3e3c5266	0.18390808
208	0xbe088167	-0.13330613
209	0x3e4f2bc3	0.20231538
210	0x3e2c7f41	0.16845419
211	0xbe01a7bb	-0.1266164
212	0x3e7d1c66	0.24717864
213	0xbcf3f007	-0.02977754
214	0x3deeae67	0.11654358
215	0x3dac175b	0.08402892
216	0xbc10ef39	-0.008846098
217	0x3e4ce306	0.20008478
218	0x3ddfa826	0.10920744
219	0xbc8c2b49	-0.017110484
220	0xbdcb21dc	-0.099185675
221	0xbf1243d5	-0.57134753
222	0xbeb5835c	-0.35451782
223	0x3d4914a3	0.049091946
224	0x3e02fadd	0.12791009
225	0x3e490b8d	0.19633313
226	0x3d210653	0.039312672
227	0x3e8c508b	0.274052
228	0x3e1181d1	0.14209677
229	0xbeb5cdbd	-0.35508528
230	0x3dbc4af5	0.091939844
231	0xbeabb3d4	-0.33535635
232	0x3e0a2976	0.13492379
233	0x3d00a2ea	0.031405367
234	0xbea1f543	-0.31632432
235	0x3e3135eb	0.17305724
236	0x3e31b8d0	0.17355657
237	0x3d8fc8fa	0.07020755
238	0xbe186164	-0.14880902
239	0x3e192b27	0.14957868
240	0xbd87c1db	-0.06628772
241	0xbe25b3b0	-0.16181827
242	0xbd77c637	-0.060491767
243	0xbee89180	-0.45423508
244	0xbed4944d	-0.41519395
245	0x3d123fc1	0.03570533
246	0xbec93cf6	-0.39304322
247	0xbd98ccfa	-0.07460971
248	0xbe5d2c94	-0.21599036
249	0xbe5971e5	-0.21234854
250	0xbe02dc3a	-0.12779322
251	0x3e3beb35	0.18351443
252	0x3db46756	0.08808772
253	0xbc2b4993	-0.010454553
254	0x3e1ea1e4	0.15491444
255	0xbe18395f	-0.14865635
